ACAS_Xu/models/1_repair.pth (torch, 57901 bytes, 14 tensors)

MatMul_H0.weight f4 [50, 5]
0	0xbec6b68c	-0.38811147
1	0x3c536267	0.012901879
2	0xbe679505	-0.2261544
3	0xbf988d45	-1.1918112
4	0xbe58a4d1	-0.21156622
5	0xbfaf1dc8	-1.3680964
6	0x3d861692	0.06547274
7	0x3e4a98e3	0.19784884
8	0xbe6bac8f	-0.23015045
9	0xbe81108b	-0.25207934
10	0x3c220f71	0.009891377
11	0x3fc2d115	1.5220057
12	0x3e67eace	0.22648165
13	0x3eccdaee	0.4001078
14	0xbda72b73	-0.08162584
15	0x3ebf5770	0.37371397
16	0x3f4ba63e	0.7955054
17	0xbf46436a	-0.77446616
18	0xbebc9a47	-0.36836454
19	0x3e98a714	0.2981497
20	0xbf0e9ade	-0.5570506
21	0x3d9c802d	0.07641635
22	0x3c376aa7	0.0111948615
23	0x3e6a81cc	0.22901076
24	0xbef9e386	-0.488064
25	0x3ce80d4f	0.028326659
26	0x3cb48893	0.02203778
27	0xbd68b6ef	-0.056815084
28	0xbeeba739	-0.46026018
29	0xbef6f199	-0.482312
30	0xbfbe3879	-1.4860984
31	0xbddde99d	-0.10835574
32	0x3d0ff6d5	0.035147507
33	0x3b63baba	0.003474875
34	0x3d96b3c9	0.0735851
35	0x3f335c5c	0.70062804
36	0x3d9085b6	0.07056753
37	0xbef03d6c	-0.4692186
38	0xbde1ff09	-0.11034972
39	0xbe17b57a	-0.14815322
40	0x3e0cbc8d	0.13743801
41	0x3f9cd749	1.22532
42	0x3f0413ad	0.5159252
43	0x3eac6820	0.3367319
44	0xbe43bfdf	-0.19116162
45	0x3d86e8b4	0.06587353
46	0x404116b5	3.017011
47	0x3dba49c9	0.09096105
48	0x3e015bf4	0.12632734
49	0xbf13cd7d	-0.57735425
50	0x3cd4a4c1	0.025957467
51	0x3fec09ad	1.8440453
52	0xbfe59fc0	-1.7939377
53	0x3e11b894	0.14230567
54	0xbd0477f4	-0.03234096
55	0xbda29f46	-0.07940535
56	0x3f038188	0.51369524
57	0xbfe71626	-1.8053634
58	0x3d85ff24	0.06542805
59	0xbef50c38	-0.47860885
60	0x3f5f2992	0.87172806
61	0x3c868250	0.01641956
62	0x3ce6c084	0.02816797
63	0x3dcf9523	0.101358674
64	0xbe69c8ef	-0.22830556
65	0x3ea67fbf	0.32519338
66	0x3eca3b97	0.39498588
67	0xbe08e932	-0.13370207
68	0x3e3a2805	0.18179329
69	0x3ebdd1a6	0.37074012
70	0xbda90eaf	-0.08254754
71	0xbddbdc99	-0.10735435
72	0x3e07eda1	0.13274242
73	0xbe96799b	-0.29389653
74	0xc00e018a	-2.218844
75	0x3e5352fd	0.20637126
76	0xbe5388fc	-0.20657724
77	0x3fbd2e8f	1.4779834
78	0x3d0378d9	0.03209767
79	0x3eb855be	0.36002916
80	0x3df2685b	0.118363105
81	0xbc6318d0	-0.013860896
82	0x3d3a8c5c	0.045544013
83	0xbcf404fa	-0.02978753
84	0x3f6e6d5e	0.9313563
85	0x3e27d4b1	0.16389729
86	0xbf883fca	-1.0644467
87	0x3f8416ca	1.0319455
88	0xbe05a702	-0.1305199
89	0x3dd27214	0.10275665
90	0xbf882c14	-1.0638452
91	0x3e13f45c	0.14448684
92	0xbe31fadd	-0.17380853
93	0xbc868c31	-0.01642427
94	0x3d898b09	0.06715972
95	0xbf71dc52	-0.9447681
96	0x3ddd69d8	0.10811204
97	0xbe4d0319	-0.20020713
98	0xbe2a44b4	-0.1662777
99	0xbe1c6df1	-0.15276314
100	0xbe40ea94	-0.18839484
101	0xbea468b3	-0.3211113
102	0xbedccb2e	-0.43123764
103	0x3d1ae82a	0.037819065
104	0xbe33ab77	-0.17545877
105	0x3d1cb896	0.038261972
106	0xbe4174b7	-0.1889218
107	0x3e690fa2	0.2275987
108	0xbf1fd030	-0.62427044
109	0x3c48c6ce	0.01225443
110	0x3d1c9ac5	0.038233537
111	0xbe946c5b	-0.2898892
112	0x3c7c5586	0.01540125
113	0xbe6fa111	-0.23401286
114	0x3ca5beef	0.020232646
115	0xbea6803a	-0.32519704
116	0xbd8b54c1	-0.06803275
117	0xbf9ddf16	-1.2333705
118	0x3c670dc5	0.014102404
119	0xbb0eec91	-0.0021808485
120	0x3d8e98ef	0.069627635
121	0xbe8d808a	-0.2763713
122	0x3ed903d7	0.42385742
123	0xbe69d78b	-0.2283613
124	0x3db3b76d	0.0877522
125	0x3d318241	0.04333711
126	0x3f65232c	0.89506793
127	0x3da72551	0.081614144
128	0xbeb7a17b	-0.35865387
129	0x3d891927	0.066942506
130	0x3f417b46	0.75578725
131	0xbd83a0fa	-0.06427188
132	0x3db4e1ba	0.088321164
133	0x3ee60d7c	0.44932163
134	0xbf898733	-1.0744385
135	0x3e93ff24	0.28905594
136	0xbf178a72	-0.59195626
137	0x3f41cf7c	0.7570722
138	0x3e716789	0.23574652
139	0xbfbb0c1a	-1.4613068
140	0xbfaf4303	-1.3692325
141	0xbe845050	-0.25842524
142	0x3e4213e5	0.18952902
143	0x3d3dd247	0.046343114
144	0x3cf8798b	0.030331394
145	0x3dfd8d95	0.1238052
146	0xc0176473	-2.365506
147	0x3e06692f	0.13126062
148	0x3ec4701a	0.38366777
149	0xbf515575	-0.8177102
150	0xbc853a92	-0.01626328
151	0xbd8574d9	-0.065164275
152	0xc0196c72	-2.397244
153	0x3cfe3ab6	0.031033855
154	0xbdb731df	-0.08945059
155	0xbd6525a2	-0.055944093
156	0x3ed118b8	0.4083917
157	0xbf16e652	-0.5894519
158	0xbd589065	-0.05287208
159	0x3dcc3a90	0.099721074
160	0xbe4c1c4c	-0.1993267
161	0x3d4c08cb	0.049813073
162	0x3d08e82f	0.033424553
163	0x3e81b445	0.25332847
164	0x3e4d09c9	0.20023264
165	0x3f2f6c81	0.6852494
166	0x3c0b1cac	0.008490723
167	0x3c4e53d3	0.012593227
168	0xbf908a66	-1.1292236
169	0x3f4662b7	0.77494377
170	0x3f9ecc6a	1.2406132
171	0xbca5c4db	-0.02023547
172	0x3d1cda65	0.038294215
173	0xbcfd90dd	-0.030952865
174	0xbd2542cd	-0.04034691
175	0xbf435f47	-0.76317257
176	0x3e025fb6	0.12731823
177	0x3d5a74ed	0.053334165
178	0x3c494a14	0.012285728
179	0x3da18a7c	0.07887742
180	0xbc99b95c	-0.018765144
181	0x3d8b8e33	0.06814232
182	0x3fe493ee	1.7857645
183	0x3d9e473e	0.07728432
184	0xbc364ff3	-0.01112746
185	0xbf3cf03c	-0.7380407
186	0xbdcbefeb	-0.0995787
187	0xbf16addb	-0.5885903
188	0xbe4d5873	-0.20053272
189	0x3e1eb3cf	0.15498279
190	0xbf6959a3	-0.911524
191	0x3bea50fd	0.007150768
192	0x3f2ced86	0.6754993
193	0xbf048f41	-0.5178109
194	0x3e4f9d47	0.2027484
195	0x3cbc53c0	0.022989154
196	0xc01bd799	-2.435034
197	0xbde02f99	-0.109465785
198	0x3e6ad474	0.22932607
199	0x3dce8659	0.100842185
200	0xbe84be96	-0.25926656
201	0xbd583456	-0.052784286
202	0x3efa1c92	0.48849922
203	0x3ebe7c75	0.37204328
204	0xbf2412a9	-0.64090973
205	0x3eebba97	0.46040794
206	0x402a3333	2.659375
207	0xbea563ab	-0.32302603
208	0xbcd031fd	-0.025414461
209	0x3e21cc83	0.15800671
210	0xbd8af326	-0.06784658
211	0x3eb504a4	0.35355103
212	0xbee441b1	-0.4458137
213	0xbf1139a5	-0.56728584
214	0xbdad0704	-0.08448604
215	0xbe114d6a	-0.14189687
216	0xbd874eb7	-0.066068105
217	0xbce396d7	-0.027781887
218	0xbf23bab7	-0.6395678
219	0x3f295ca6	0.66156995
220	0x3e8df551	0.27726224
221	0x3fa213f6	1.2662342
222	0xbdac3017	-0.0840761
223	0x3ed4ce6b	0.41563734
224	0xbf5a955d	-0.8538416
225	0xbfb3a395	-1.4034296
226	0x3dae4511	0.08509267
227	0x3b45340a	0.0030090832
228	0x3cb621c1	0.022232892
229	0x3bf8a844	0.007588418
230	0xbfb214ab	-1.3912557
231	0x3c13cd6b	0.009021143
232	0x3e245305	0.16047294
233	0x3c7f828a	0.015595088
234	0xbc4ab25d	-0.012371627
235	0xbd65506e	-0.055984907
236	0x3c9ee40b	0.019395849
237	0xbdf80e38	-0.12112087
238	0xbeee8ea7	-0.4659321
239	0xbd0d9196	-0.03456267
240	0xbe7cb516	-0.24678454
241	0x3d8c4888	0.06849772
242	0xbedfb3bd	-0.43691817
243	0x3ea1d259	0.31605795
244	0xbf02566a	-0.5091311
245	0xbfc2d698	-1.5221739
246	0x3c616040	0.013755858
247	0xbc671a64	-0.014105413
248	0x3cc442e7	0.023957683
249	0x3cdbfad0	0.026852995

MatMul_H0.bias f4 [50]
0	0xbf04f9ed	-0.51943856
1	0xbe8952d0	-0.26820993
2	0x3e2b9d8e	0.16759321
3	0x3ecb6a03	0.39729318
4	0xbc562b09	-0.013071784
5	0xbdc1c215	-0.09460846
6	0xbeb7fb36	-0.35933846
7	0x3d9b66d1	0.0758797
8	0xbcdbfd41	-0.02685416
9	0xbe258720	-0.16164827
10	0xbf1790ad	-0.5920513
11	0xbeb22fe9	-0.34802178
12	0x3e75ec45	0.24015911
13	0xbe3e0f95	-0.18560632
14	0xbf71b1e0	-0.9441204
15	0x3d304033	0.043029975
16	0xbe6352b9	-0.22199525
17	0x3f00f66a	0.50376
18	0xbe4524df	-0.19252346
19	0xbe426eec	-0.18987626
20	0x3d9b0849	0.0756994
21	0xbe478563	-0.19484477
22	0x3d70fd91	0.05883557
23	0xbc8d7157	-0.017265959
24	0x3e05720b	0.13031785
25	0x3e13e351	0.14442183
26	0x3e19276f	0.14956449
27	0xbeff650b	-0.49881777
28	0xbe74c2e2	-0.23902467
29	0xbe81a1a4	-0.25318635
30	0x3c35733d	0.011074838
31	0x3ea096a6	0.31364936
32	0x3e194112	0.14966229
33	0xbda7b687	-0.08189111
34	0x3eb5f582	0.3553887
35	0xbdd4bec5	-0.10387949
36	0x3d2bffb3	0.0419919
37	0xbe2ad1ea	-0.16681638
38	0xbe6bad59	-0.23015346
39	0x3e4cab8a	0.19987312
40	0x3d68a97e	0.056802265
41	0x3f3a1109	0.72682244
42	0xbc3a16f3	-0.011358011
43	0x3bc85c77	0.0061145383
44	0xbe1ee3c1	-0.15516569
45	0xbe2378e4	-0.15964085
46	0xbebfc935	-0.37458196
47	0x3e303d22	0.1721082
48	0x3d3f17c1	0.046653513
49	0xbec6cd1c	-0.3882836

MatMul_H1.weight f4 [50, 50]
0	0x3d71b159	0.059007023
1	0xbdc6757a	-0.096903756
2	0xbe2f8079	-0.17138852
3	0x3ea7a46e	0.32742637
4	0xbe1f28fc	-0.15542978
5	0xbe844ba9	-0.25838974
6	0xbfd86ee7	-1.6908845
7	0xbd088248	-0.03332737
8	0x3e95ef30	0.29284048
9	0xbda2642d	-0.07929263
10	0xbd5e8920	-0.05432999
11	0x3e544d2e	0.20732567
12	0x3f0e1baf	0.5551099
13	0x3dfaecc8	0.12252194
14	0x3e1deeaa	0.15423074
15	0x3db883e1	0.09009529
16	0x3aa9a236	0.0012942019
17	0x3e6eb057	0.23309456
18	0xbf8d9de8	-1.1063814
19	0x3d3f6499	0.046726797
20	0x3f356b27	0.70866627
21	0x3e3186b0	0.17336535
22	0x3d816e0b	0.06319817
23	0xbe32de3b	-0.17467587
24	0x3e16ffe0	0.14746046
25	0x3e6750eb	0.22589462
26	0x3daafe7b	0.083493195
27	0xbdb12f70	-0.08651626
28	0xbf2180e4	-0.63087296
29	0x3dd993e8	0.10623914
30	0x3e10f3bc	0.14155477
31	0x3e5cdc26	0.21568355
32	0x3ef9917f	0.48743817
33	0xbea037eb	-0.31292662
34	0x402d88ad	2.711467
35	0xbc593d6f	-0.013259276
36	0xbe014161	-0.12622596
37	0x3e4bc700	0.19900131
38	0xbdaa0847	-0.0830236
39	0x3e752df7	0.23943315
40	0x3d08318f	0.033250388
41	0x3e4e0b28	0.20121443
42	0xbe11c448	-0.14235032
43	0xbd7f7c2a	-0.06237427
44	0x3e063db7	0.1310948
45	0xbf87cb2a	-1.0608876
46	0xbf01930b	-0.50614995
47	0x3e74752a	0.2387282
48	0xbe421914	-0.18954879
49	0xc021cfb7	-2.528303
50	0x3ba7c719	0.00512017
51	0xba909e9e	-0.00110336
52	0x3c19ed9d	0.00939503
53	0xbd0aa84a	-0.0338519
54	0xbd27bdcf	-0.0409525
55	0xbd2eb661	-0.0426544
56	0x3ccbfedc	0.0249018
57	0x3c2188dc	0.00985929
58	0xbcd2f1aa	-0.02575
59	0xbc8cd48f	-0.0171912
60	0xbcf9533e	-0.0304352
61	0x3c0193c9	0.00790877
62	0xbc6be023	-0.0143967
63	0x3cec12ae	0.0288175
64	0xbc9ff9d0	-0.0195283
65	0xbd4c9499	-0.0499464
66	0xbcae16c9	-0.0212511
67	0x3cbe3e5f	0.0232231
68	0x3cac357e	0.0210216
69	0xbd1f3139	-0.0388653
70	0xbc2bdd69	-0.0104898
71	0x3bd9dfb0	0.00664898
72	0x3cf7eeef	0.0302653
73	0xbc422178	-0.0118488
74	0x3c9c5967	0.0190856
75	0xbd83a315	-0.0642759
76	0x3a819aa8	0.000988801
77	0x3d0bead5	0.0341595
78	0x3ce7ad23	0.0282808
79	0xbca35499	-0.0199378
80	0x3c33a620	0.0109649
81	0xbd24c603	-0.0402279
82	0xbb8bb18f	-0.00426311
83	0xbc1005b2	-0.00879042
84	0xbd7a7689	-0.0611482
85	0xbc9ab233	-0.0188838
86	0xbd4b02e3	-0.0495633
87	0x3b25bf98	0.00252912
88	0xbc92403f	-0.0178529
89	0xbca5e750	-0.0202519
90	0x3cd48593	0.0259426
91	0xbbff4c10	-0.00779105
92	0x3d1a327b	0.0376458
93	0x3cb9bd5b	0.0226733
94	0xbcffb8b2	-0.031216
95	0x3ca78408	0.0204487
96	0xbd0771af	-0.0330674
97	0x3ca4d6af	0.0201219
98	0xbbfa93da	-0.00764702
99	0x3cc4e64e	0.0240356
100	0x3f04e67e	0.51914203
101	0x3ca1d46c	0.019754611
102	0x3d10f3e6	0.03538885
103	0xbf2f4243	-0.6846048
104	0xbf04527a	-0.5168835
105	0x3f98bb34	1.193213
106	0x3eb5c0f1	0.35498765
107	0x3f816254	1.0108132
108	0x3e9987a0	0.29986286
109	0x3e91f904	0.28510296
110	0xbf7a1aca	-0.97697127
111	0x3eec6a67	0.4617493
112	0xbeb3f279	-0.3514593
113	0x3eff08d5	0.49811426
114	0xbf172780	-0.5904465
115	0xbe859c12	-0.26095635
116	0xbe7c6626	-0.24648342
117	0x3ea95c1e	0.33078092
118	0xbd0b933e	-0.034075968
119	0x3dadfc61	0.08495403
120	0xbd19270f	-0.037390765
121	0x3e277dd1	0.16356589
122	0x3e996c7f	0.29965588
123	0x3e5bfd64	0.2148338
124	0x3f1873cd	0.595517
125	0x3ea62a27	0.32454035
126	0xbf79fd1a	-0.9765183
127	0x3ed462d4	0.4148165
128	0x3f0bcbf6	0.54608095
129	0x3f111e71	0.56687075
130	0x3eda016b	0.42579207
131	0x3e97a0b2	0.29614788
132	0xbf80adbd	-1.0053021
133	0xbe65f32f	-0.22456048
134	0xbe32d68d	-0.17464657
135	0xbde72b77	-0.11287587
136	0x3e81fb12	0.25386864
137	0xbda0e494	-0.07856098
138	0xbee41bf1	-0.44552568
139	0x3ef57bf4	0.4794613
140	0xbe5c6792	-0.21523884
141	0x3f37c0a4	0.7177832
142	0xbbca2d7c	-0.006169973
143	0x3f890cd0	1.0707035
144	0x3e8ba3ef	0.2727351
145	0xbdbedb4a	-0.0931917
146	0xbfb821e2	-1.438534
147	0x3f1219dc	0.5707071
148	0x3d1c3a06	0.038141273
149	0x400c0f1c	2.1884222
150	0x3e3c3398	0.18379056
151	0x3cb00705	0.021487722
152	0xbd9ad0b6	-0.0755934
153	0xbf790131	-0.9726744
154	0xbea2f4a4	-0.3182727
155	0xbe810b4d	-0.25203934
156	0xbf3d8eb6	-0.74045885
157	0xbce67840	-0.028133512
158	0x3e38c645	0.18044384
159	0xbe054aab	-0.13016765
160	0xbd3d3d78	-0.0462012
161	0xbc0929ca	-0.00837178
162	0x3e053fd9	0.13012637
163	0xbf65c623	-0.8975546
164	0x3e90daea	0.28292018
165	0x3ecade6a	0.39622813
166	0xbd07790d	-0.033074427
167	0x3e76f575	0.24117072
168	0xbfc00797	-1.5002316
169	0x3d17ab58	0.03702864
170	0xbf0813aa	-0.53155005
171	0x3d9929b7	0.074786596
172	0xbecc44ca	-0.39896232
173	0x3ea47573	0.32120857
174	0xbcbb1e15	-0.022841493
175	0xbe91104f	-0.28332755
176	0xbe260ed4	-0.16216594
177	0xbebf18ba	-0.37323552
178	0x3e1925b9	0.14955796
179	0x3e10828a	0.14112297
180	0xc02b4cf3	-2.6765716
181	0xbf709873	-0.9398262
182	0xbf06da27	-0.52676624
183	0xbc828f5e	-0.015937503
184	0xbef2d49b	-0.4742783
185	0x3e82f855	0.25580087
186	0x3f935b88	1.1512308
187	0x3ec2ae8f	0.38023803
188	0xbf2f043d	-0.6836584
189	0x3faf86d1	1.3713018
190	0x3d73b023	0.05949415
191	0x3d9d4a7b	0.07680222
192	0x3ead04be	0.3379268
193	0x3eeee918	0.4666221
194	0x3ea3e412	0.3200994
195	0xbe9467d7	-0.28985474
196	0x3ea0eedc	0.31432235
197	0x3f2ba8dd	0.6705454
198	0x3def39dc	0.11680958
199	0xbf3da831	-0.74084765
200	0x3f153bd9	0.58294445
201	0xbdd2f949	-0.103014536
202	0x3f2f389d	0.6844576
203	0x3f02a417	0.5103163
204	0x3eb0d536	0.34537667
205	0xbdb94266	-0.090458676
206	0x3e6f268a	0.23354545
207	0xbcc2e03e	-0.023788568
208	0xbe03c307	-0.12867366
209	0xbd4936cf	-0.049124535
210	0x3fd2e632	1.64765
211	0xbf3464de	-0.7046641
212	0xbe510ef0	-0.20415854
213	0xbe6810c1	-0.22662641
214	0xbfb4279a	-1.4074585
215	0xbfbcf4ef	-1.4762248
216	0x3e42b152	0.19012955
217	0xc0093e1e	-2.1444163
218	0x3db19b24	0.08672169
219	0xbe1ae672	-0.1512697
220	0x3e31e75b	0.17373411
221	0xbf7db711	-0.9910746
222	0xbed79fb1	-0.42114022
223	0x3ebd4cf6	0.3697278
224	0xbfa1d996	-1.2644527
225	0x3ef67591	0.4813657
226	0xbdba3158	-0.09091443
227	0x3f60ea56	0.8785757
228	0x3f5ab2fb	0.8542935
229	0x3ecb9b58	0.39766955
230	0x3f21475a	0.629995
231	0x3f06d12c	0.5266292
232	0xbf0625a6	-0.52401197
233	0x3e912038	0.28344893
234	0xbdd21697	-0.10258215
235	0x3e90e3c5	0.28298774
236	0xc07f3e89	-3.9881918
237	0x3e51f478	0.20503414
238	0xbf496a20	-0.7867756
239	0xbf355f2a	-0.70848334
240	0x3d4a3fc4	0.049377218
241	0x3f1b684c	0.6070602
242	0xbdc1e4ea	-0.0946749
243	0xbdf47b9d	-0.1193764
244	0xbec82cdc	-0.39096725
245	0x3ed20f3a	0.41027242
246	0x3d1cf419	0.038318727
247	0xbd1866a4	-0.03720726
248	0x3ed2cf1f	0.41173646
249	0x3ec1e990	0.37873507
250	0xbf8d1c55	-1.1024271
251	0xbf4d44dc	-0.80183196
252	0x3fb1d332	1.3892577
253	0xbeaad037	-0.3336198
254	0x3e510214	0.20410949
255	0x3fab7653	1.3395485

MatMul_H1.bias f4 [50]
0	0xbd7a5a03	-0.061120998
1	0xbca15b2f	-0.0196968
2	0xbf8b7744	-1.0895772
3	0xbfab9f21	-1.3407937
4	0xbf668174	-0.9004128
5	0xbeef27f5	-0.46710172
6	0x3f5a81bf	0.85354227
7	0x3d0fe99e	0.035134904
8	0xbfd15248	-1.6353235
9	0xbf95f527	-1.171544
10	0xbfa102b1	-1.2578946
11	0xbb90e3d3	-0.00442169
12	0x3bc5b0a9	0.0060330224
13	0xbca3102b	-0.01990517
14	0x3e67486f	0.22586225
15	0x3eba5e97	0.3640029
16	0xbe758513	-0.23976545
17	0x3f83da2c	1.0300956
18	0x3f626e94	0.8844998
19	0xbb84eae1	-0.00405632
20	0xbe9dd3f9	-0.30825785
21	0xbcd765e3	-0.0262937
22	0xbf52a999	-0.82290035
23	0x3e863729	0.2621396
24	0x3e0bb3b3	0.13642769
25	0xbdfdc6df	-0.12391447
26	0xbddd3b54	-0.108023316
27	0xbdbce609	-0.09223563
28	0xbdd770ca	-0.1051956
29	0xbc5528bc	-0.0130102
30	0xbf91b9da	-1.1384842
31	0x3df68aae	0.1203817
32	0xbeb9f965	-0.36323085
33	0xbcd9ff86	-0.0266111
34	0x3f0783bd	0.5293539
35	0x3f1dcf44	0.6164439
36	0xbee3ac1f	-0.44467255
37	0x3debbd5f	0.11510729
38	0x3e4a56d1	0.1975968
39	0x3ee56da9	0.44810227
40	0x3f5c203f	0.85986704
41	0xbf375df5	-0.7162774
42	0x3e8a3d4b	0.26999888
43	0xbf8d194c	-1.1023345
44	0xbc1fc8de	-0.00975248
45	0xbf3edd34	-0.7455628
46	0x3e5174d1	0.20454718
47	0xbdd2c381	-0.10291196
48	0xbc39b9cb	-0.0113358
49	0xbc783820	-0.0151501

MatMul_H2.weight f4 [50, 50]
0	0x3f10f324	0.56621003
1	0x3d2edaa9	0.042689
2	0x3e324354	0.17408496
3	0x3c195e37	0.0093608415
4	0x3fa7b85d	1.3103138
5	0xbf0f9d1e	-0.56099117
6	0xbdbd4dfb	-0.09243389
7	0xbe91f5ae	-0.2850775
8	0xbe60d005	-0.21954353
9	0x3edfcacd	0.43709412
10	0xbdd07f08	-0.10180479
11	0xbd1008dc	-0.0351647
12	0x3f09a780	0.5377121
13	0xbc1a133d	-0.009404001
14	0x3f34f307	0.7068333
15	0x3e8495fc	0.2589568
16	0xbf27d184	-0.6555407
17	0x3ef7c8ff	0.48395535
18	0x3e7d4143	0.24731927
19	0xbcd8d4e3	-0.0264687
20	0xbd91d7f9	-0.07121272
21	0x3b9e8ac5	0.00483832
22	0x3ed0e06b	0.40796217
23	0xbfb854e1	-1.4400903
24	0x3e761008	0.24029553
25	0xbecb42ea	-0.3969949
26	0x3ea43b26	0.32076377
27	0xbf4c0827	-0.7969994
28	0x3e59bc3e	0.21263215
29	0xbd306dd7	-0.0430735
30	0xbf4df5b9	-0.8045307
31	0xbf3ec468	-0.7451844
32	0x3ee4a1a5	0.44654575
33	0xba174e5d	-0.000577187
34	0xbf00f904	-0.5037997
35	0x3d1e91db	0.038713317
36	0x3eb70f06	0.3575365
37	0xbe843138	-0.258188
38	0x3e531ccb	0.20616452
39	0xbf1e9cd8	-0.61958075
40	0xbec532d7	-0.3851535
41	0x3ee16647	0.44023344
42	0xbf2d1b1a	-0.6761948
43	0x3f254856	0.645635
44	0x3ce7a8f1	0.0282788
45	0x3f165be5	0.5873397
46	0xbf48b731	-0.7840453
47	0x3c9a5164	0.018837638
48	0xbc076c91	-0.00826563
49	0xbc1d627c	-0.009606
50	0xbd54b168	-0.051927
51	0x3c6eab44	0.0145672
52	0xbd1b0905	-0.0378504
53	0xbd3d665d	-0.0462402
54	0x3c514b4c	0.0127743
55	0xbc52e947	-0.012873
56	0x3cf7de94	0.0302575
57	0x3ceff881	0.0292933
58	0x3c7d72f2	0.0154693
59	0x3c1d6b81	0.00960815
60	0xbd17e290	-0.0370813
61	0x3cb8a5ce	0.02254
62	0xbbac6752	-0.00526134
63	0xbca0df3e	-0.0196377
64	0xbd171200	-0.0368824
65	0xbc0861d9	-0.00832411
66	0xbce15f61	-0.0275113
67	0x3d16c707	0.0368109
68	0xbc3c8e91	-0.0115086
69	0xbd18a48c	-0.0372663
70	0xbcfeebce	-0.0311183
71	0x3bc47815	0.00599576
72	0x3ca2424a	0.019807
73	0x3c132f07	0.00898338
74	0xbd106ec8	-0.0352619
75	0xbc0452eb	-0.00807641
76	0x3bc3380e	0.00595761
77	0x3d00cacb	0.0314434
78	0x3cdaaa71	0.0266926
79	0x3b89c96d	0.00420492
80	0x3c02b7c0	0.00797838
81	0xbcb73e25	-0.0223685
82	0x3c39f1ff	0.0113492
83	0x3ac1795d	0.00147609
84	0xbd9ee3bb	-0.0775828
85	0xbd47bdcf	-0.048765
86	0xbcec23aa	-0.0288256
87	0x3a8fa7fe	0.00109601
88	0xbcbc6d6f	-0.0230014
89	0xbd4b6193	-0.0496536
90	0x3d168bfe	0.0367546
91	0x3bcf7b12	0.00633181
92	0xbc15acfb	-0.00913548
93	0x3c3d8ed7	0.0115697
94	0xbd3e3f50	-0.0464471
95	0xbd4aa0bd	-0.0494697
96	0xbd403a83	-0.0469308
97	0xbd0753e7	-0.033039
98	0xbd39e6fc	-0.0453863
99	0x3c79f87f	0.015257
100	0xbc0e486d	-0.00868426
101	0x3c654493	0.0139934
102	0xbd31fbc6	-0.043453
103	0x3bac5040	0.00525859
104	0x3cbdedd7	0.0231847
105	0xbc6f8e99	-0.0146214
106	0xbd6f8e12	-0.0584851
107	0x3c3e9b46	0.0116337
108	0xbcd65973	-0.0261657
109	0xbca512df	-0.0201506
110	0x3d178268	0.0369896
111	0xbcab4487	-0.0209067
112	0xbd408a34	-0.0470068
113	0x3d2dd64d	0.0424407
114	0x3d104a80	0.0352273
115	0xbcfd64e5	-0.0309319
116	0xbc952d8f	-0.0182102
117	0x3c8ff576	0.0175731
118	0x3c126e8d	0.00893749
119	0x3c169665	0.00919113
120	0xbce849cb	-0.0283555
121	0xbc810188	-0.0157478
122	0x3cba9202	0.0227747
123	0xbc685122	-0.0141795
124	0xbd3fb58d	-0.046804
125	0xbc21f548	-0.00988514
126	0xbcd4f921	-0.0259977
127	0xbd381012	-0.0449372
128	0xbcb3f05d	-0.0219652
129	0x3c6a1e82	0.0142895
130	0xbd3ef050	-0.0466159
131	0x3d00f7fd	0.0314865
132	0x3bc403fb	0.00598192
133	0xbc95f098	-0.0183032
134	0xbd4eb82a	-0.0504686
135	0xbd6a8eb4	-0.057265
136	0xbcfaf99b	-0.0306366
137	0xbbc02407	-0.00586367
138	0x3ce3d01f	0.0278092
139	0xbc82d92e	-0.0159727
140	0xbd21981b	-0.0394517
141	0x3c938731	0.0180088
142	0x3cbd5dfa	0.0231161
143	0x3d09a8c0	0.0336082
144	0xbd437b2f	-0.0477249
145	0xbd5f3c05	-0.0545006
146	0xbd1936ee	-0.0374059
147	0xbbf070ec	-0.00733768
148	0x3c2fcf66	0.0107306
149	0xba01b736	-0.000494826
150	0x3eabb020	0.3353281
151	0x3d0d62a4	0.0345179
152	0x3e136a80	0.14396095
153	0x3face9ec	1.3508887
154	0x3f0f618c	0.5600822
155	0xbf27caa0	-0.65543556
156	0x3decc097	0.11560171
157	0xbe8e9421	-0.27847388
158	0xbe499b82	-0.19688228
159	0x3f403482	0.7508012
160	0xbd05514f	-0.032548245
161	0x3c35d173	0.0110973
162	0x3fa94e08	1.3226938
163	0x3f0ca540	0.5493965
164	0xbf41569f	-0.755228
165	0xbf094a99	-0.5362945
166	0xbf167fa8	-0.5878854
167	0xbede0267	-0.43361208
168	0x3f5249c2	0.82143795
169	0x3a110daf	0.000553335
170	0x3f65a048	0.89697695
171	0xbcd3264d	-0.0257751
172	0x3f87c647	1.0607384
173	0x3fd41dfd	1.6571652
174	0xbea334ed	-0.31876317
175	0x3e99b86c	0.30023515
176	0xbf225434	-0.63409734
177	0xbd52f39e	-0.051501863
178	0x3dbfca8d	0.09364805
179	0xbc7b05c5	-0.0153212
180	0x3f6d27ec	0.9263904
181	0xbd515229	-0.051103745
182	0x3eb2f693	0.34953746
183	0xbd3c6328	-0.045993
184	0xbfe2b09f	-1.771015
185	0xbe207544	-0.15669733
186	0xbe79939c	-0.24372715
187	0xbdbf869e	-0.09351848
188	0x3dff2c81	0.1245966
189	0x3e270838	0.16311729
190	0x3f265c8f	0.64984983
191	0x3f119a99	0.5687652
192	0xbf202427	-0.62555164
193	0xbf7fe397	-0.9995665
194	0xbc974a6a	-0.0184681
195	0x3e0f726d	0.14008494
196	0x3edd49f5	0.43220487
197	0x3f09fbad	0.5389965
198	0x3d2118ea	0.0393304
199	0x3d28bb76	0.0411944
200	0x3e0c393d	0.1369371
201	0xbcdd3a6e	-0.0270054
202	0x3e07e240	0.13269901
203	0xbed4c07f	-0.41553113
204	0x3d30bbcb	0.043147843
205	0xbe535407	-0.20637523
206	0xbe0ae48a	-0.13563743
207	0xbe9274fb	-0.28604874
208	0xbe291acc	-0.16514128
209	0x3eaad366	0.3336441
210	0xbf3b6e43	-0.7321512
211	0xbd0b5533	-0.0340168
212	0xbeb0cf05	-0.34532943
213	0xbcd454a6	-0.02591927
214	0x3dcbb23c	0.09946105
215	0x3de965c0	0.113963604
216	0x3ec07b7d	0.37594214
217	0xbcbd2088	-0.023086801
218	0xbd815ab7	-0.063161306
219	0x3cf77f28	0.030212
220	0x3d0eaabd	0.034830797
221	0xbd287a58	-0.0411323
222	0xbd1734c7	-0.036915567
223	0xbe0e9095	-0.13922341
224	0x3daa7ebd	0.08324955
225	0x3c51e535	0.012810995
226	0xbbd6a790	-0.0065507367
227	0xbfadc329	-1.3575183
228	0x3de0c1a1	0.10974432
229	0xbcb50a03	-0.0220995
230	0xbebdabfd	-0.3704528
231	0xbdd925c0	-0.10602903
232	0xbf80415b	-1.0019945
233	0x3c6d1684	0.0144707
234	0xbf25df0a	-0.64793456
235	0x3e5b77c1	0.21432401
236	0xbf916157	-1.1357831
237	0xbee1c70f	-0.44097182
238	0x3e69ddcc	0.22838515
239	0x3f0c8276	0.5488657
240	0x3e13f9e1	0.1445079
241	0x3f2cc607	0.67489666
242	0xbe694000	-0.2277832
243	0x3f521e22	0.8207723
244	0x3caabc01	0.0208416
245	0x3e12812d	0.14307089
246	0xbecc7657	-0.39934036
247	0x3e31c9f6	0.17362198
248	0x3d0bb3c8	0.034107
249	0xbcb377fd	-0.0219078
250	0xbfbdfd4b	-1.4842924
251	0xbd340f81	-0.0439601
252	0xbda229bc	-0.079181165
253	0x3f845201	1.0337526
254	0x3f049e6f	0.5180425
255	0x3ed7cb10	0.42147112

MatMul_H2.bias f4 [50]
0	0xbfc36dee	-1.5267923
1	0xbcaa22b4	-0.0207685
2	0xbc8f5ae7	-0.0174994
3	0xbfc57c8c	-1.5428634
4	0x3d431ea8	0.047636658
5	0x3f07f9ca	0.5311552
6	0x3d86b6d0	0.065778375
7	0xbf1e136b	-0.6174838
8	0xbfc17990	-1.5115223
9	0x3f1a9967	0.60390323
10	0xbc9d66e3	-0.0192141
11	0x3e33f4f8	0.17573917
12	0xbc5da295	-0.013527532
13	0x3eec4f89	0.4615443
14	0x3f9dd159	1.2329513
15	0xbcfc40c3	-0.0307926
16	0x3ef66eec	0.48131502
17	0xbe321699	-0.17391433
18	0xbe41a97b	-0.18912308
19	0xbd497584	-0.049184337
20	0x3df0aa0d	0.117511846
21	0xbfcec09b	-1.6152529
22	0xbeaa505d	-0.33264437
23	0xbfe318dd	-1.7741963
24	0x3e9a1304	0.30092633
25	0xbfc6013e	-1.5469129
26	0xbf234676	-0.6377939
27	0xbc98d2a8	-0.018655136
28	0x3f4494aa	0.76789343
29	0xbc904197	-0.0176094
30	0x3f4dccb3	0.8039047
31	0xbf910e70	-1.1332531
32	0x3f038c40	0.5138588
33	0x3f3e5191	0.7434321
34	0xbce565eb	-0.0280027
35	0x3f1b4432	0.6065093
36	0xbee403e3	-0.44534215
37	0xbea049c8	-0.3130629
38	0xbc5abf69	-0.0133513
39	0xbd55a5f6	-0.052160226
40	0x3d766b5e	0.060160987
41	0x3ea4edfc	0.32212818
42	0x3ef75b97	0.48312065
43	0x3e3b3d78	0.18285167
44	0x3f3c26e1	0.73496825
45	0xbfcc4f98	-1.596179
46	0xbd11fe83	-0.035643112
47	0x3e580102	0.21094134
48	0x3f26c48e	0.6514367
49	0xbfb6409f	-1.4238471

MatMul_H3.weight f4 [50, 50]
0	0xbed947a0	-0.42437458
1	0xbd580977	-0.0527434
2	0xbcd28863	-0.0256998
3	0xbf60cd6d	-0.87813455
4	0xbede40c8	-0.434088
5	0xbf60e82c	-0.87854266
6	0xbea24b60	-0.31698132
7	0x3dbcb3cc	0.09213981
8	0x3ec8e81f	0.39239594
9	0x3ee5150f	0.4474263
10	0xbb218fdd	-0.00246524
11	0x3e8df583	0.27726373
12	0xbec10ca8	-0.37704968
13	0x3fe2ac26	1.7708786
14	0x3e71c54f	0.23610424
15	0xbc1f0452	-0.00970562
16	0x3fb2ea3c	1.3977733
17	0xbec33a35	-0.38130346
18	0x3f09ec28	0.5387597
19	0x3f49cd7c	0.7882917
20	0xbe8599a1	-0.26093772
21	0x3f155037	0.58325523
22	0x3f0fe661	0.56210905
23	0x3fb705fb	1.42987
24	0x3e6c3def	0.23070501
25	0x3dd5caf9	0.104391046
26	0x3f4942eb	0.78617734
27	0xbb957ff0	-0.0045623705
28	0x402c7bf8	2.6950665
29	0xbd3a90db	-0.0455483
30	0xbfaa7b78	-1.331893
31	0x3e60b5c3	0.21944337
32	0x3f9b2888	1.2121744
33	0x3eead708	0.4586718
34	0xbc327533	-0.0108922
35	0x3e4db229	0.20087494
36	0x3e362920	0.17789125
37	0xc076deae	-3.8573413
38	0xbc9d5f57	-0.0192105
39	0xbe956f10	-0.29186296
40	0x3e81d2ef	0.25356242
41	0x40550031	3.3281367
42	0xbf3d02f0	-0.7383261
43	0x3e4e1d1a	0.20128289
44	0xc00a0af8	-2.1569195
45	0x3f707994	0.93935513
46	0xbf59fdc1	-0.8515282
47	0xbe66142a	-0.2246863
48	0xc023b22d	-2.55775
49	0x3dd89d35	0.1057686
50	0xbebe9a6c	-0.3722719
51	0x3d241bb9	0.0400655
52	0xbaf9e081	-0.00190641
53	0x3d36d0c7	0.0446327
54	0xbf06febe	-0.52732456
55	0xbc2dbde0	-0.010604352
56	0xbf1ec93f	-0.6202583
57	0xbe36b05d	-0.17840715
58	0x3f914849	1.1350185
59	0x3f0a3ba0	0.5399723
60	0xbc662fe0	-0.0140495
61	0xbe843f0e	-0.25829357
62	0xbecac3e7	-0.39602587
63	0x3f2d06b9	0.6758838
64	0x3ecbc293	0.39796886
65	0x3d1ccf79	0.0382838
66	0x3ec11477	0.37710926
67	0x3f9cdd28	1.2254992
68	0xbec98d38	-0.39365554
69	0x3e818823	0.25299177
70	0xbea0f7b5	-0.31438985
71	0x3e3d7233	0.18500595
72	0xbec5c890	-0.3862958
73	0xbef07f38	-0.4697206
74	0xbdb00e95	-0.08596531
75	0x3ea2e070	0.31811857
76	0x3c3a4325	0.011368548
77	0xbd6ea74e	-0.058265023
78	0x3daebe74	0.0853242
79	0x3d364643	0.0445006
80	0x3e56301c	0.2091679
81	0x3f124cb8	0.57148314
82	0x3e35a425	0.17738397
83	0x3edc9724	0.4308406
84	0xbd2c4c24	-0.0420648
85	0xbd87cade	-0.06630491
86	0x3f819d30	1.0126095
87	0x3d5b8b4b	0.053599637
88	0xbc99b28e	-0.0187619
89	0x3e80fad9	0.25191382
90	0x3eb8be3b	0.36082634
91	0x3f13c954	0.5772908
92	0xbebf3a0f	-0.37348983
93	0x3dc2812e	0.09497295
94	0x3e30c4da	0.17262593
95	0xbdfbbd97	-0.12292021
96	0x3d7aa37c	0.061191067
97	0xbe303c6d	-0.1721055
98	0x3dec23f5	0.11530296
99	0xbd2e2cf5	-0.042523343
100	0x3f72e02b	0.94873303
101	0xbb252ea3	-0.00252048
102	0xbd3db263	-0.0463127
103	0xbc3191e1	-0.010838003
104	0xbf158b08	-0.5841527
105	0xbf511353	-0.8167011
106	0xc0063782	-2.097138
107	0x3ddd4f7e	0.108061776
108	0x3fc3d570	1.5299511
109	0xbeaa7793	-0.33294353
110	0x3ceae11f	0.0286718
111	0xbed15fb0	-0.40893316
112	0x3e210f43	0.15728478
113	0x3f7d6308	0.98979235
114	0xbe0668b2	-0.13125876
115	0x3c1e5698	0.0096642
116	0x3d8eda98	0.06975287
117	0xbe13b798	-0.14425504
118	0x3e4b96ae	0.19881698
119	0xbf4c1822	-0.79724324
120	0xbbe8aea2	-0.007100896
121	0xbef0473a	-0.46929342
122	0x3efda788	0.4954188
123	0x3d824339	0.06360478
124	0xbd436a66	-0.04770889
125	0xbfaa1684	-1.3288121
126	0xbda07c25	-0.07836179
127	0xbf904561	-1.1271173
128	0x3faba8cb	1.3410887
129	0xbd0d632a	-0.0345184
130	0xbfc44770	-1.5334301
131	0x3ef4038b	0.47658953
132	0xbea88bc1	-0.32919124
133	0xbe5e856e	-0.21730587
134	0x3cbda28d	0.0231488
135	0xbfa14df2	-1.2601912
136	0x3f871935	1.0554568
137	0x3fc57b1a	1.5428193
138	0xbd1b4afa	-0.0379133
139	0x3f092437	0.53570884
140	0x3ea801dd	0.32813922
141	0xbff581ac	-1.9180198
142	0xbe601c17	-0.21885715
143	0x3f03275f	0.5123195
144	0x3e1cd57f	0.15315817
145	0x3f8cd157	1.1001385
146	0xbf6383dd	-0.8887308
147	0xbf11cbe0	-0.56951714
148	0xbec93949	-0.39301518
149	0x3c81d88a	0.015850324
150	0xbf7b649a	-0.9820038
151	0xbd4aae7a	-0.0494828
152	0x3ce518f4	0.027966
153	0xbf992ab2	-1.1966155
154	0xbed355d7	-0.41276428
155	0x3de53e1d	0.11193488
156	0xbf3517a0	-0.70739174
157	0xbe83eb0a	-0.25765258
158	0xbd925c72	-0.07146539
159	0x3f53ebf0	0.8278189
160	0x3cf135cd	0.0294446
161	0xbeba4240	-0.3637867
162	0xbc38950b	-0.011266003
163	0x3f1bea5f	0.60904497
164	0x3e99eabb	0.30061898
165	0xbcf44a55	-0.0298206
166	0xbef8e62a	-0.486131
167	0xc02a74ce	-2.6633792
168	0xbf3940c9	-0.7236448
169	0x3e4da441	0.20082189
170	0x3f6b133f	0.9182624
171	0x3efecde6	0.49766463
172	0xbefa8ae0	-0.48934078
173	0xbf49cb23	-0.7882559
174	0x3f424a46	0.7589458
175	0xbe94101e	-0.28918546
176	0x3ebde3ec	0.37087953
177	0x3e47afc8	0.19500649
178	0x3f5aed2c	0.85518146
179	0x3d1bc58e	0.0380302
180	0x3ed54aeb	0.4165872
181	0x3edcadb5	0.43101278
182	0xbf537fe3	-0.82617015
183	0x3e1879ad	0.14890166
184	0x3cb03e56	0.0215141
185	0x3ddcad54	0.10775247
186	0xbf598552	-0.84969056
187	0xbea5488e	-0.32281917
188	0xbca0b9ea	-0.0196199
189	0x3e99b441	0.30020335
190	0xbdeeb70a	-0.11656006
191	0x3f227122	0.63453877
192	0x3e2084f5	0.15675719
193	0xbe6805cb	-0.2265846
194	0xbf65affe	-0.8972167
195	0xc0825b1b	-4.0736213
196	0xbf1cd8a2	-0.61268055
197	0x3ce21882	0.027599577
198	0xbee38f28	-0.44445157
199	0x3da633cc	0.08115348
200	0x3e66b47f	0.22529791
201	0x3d2e6d9c	0.042585
202	0x3ca968af	0.0206798
203	0xbedd2d59	-0.4319866
204	0xbe66f23d	-0.22553344
205	0xbe0b642f	-0.13612436
206	0x3f04c3f9	0.5186153
207	0x3f038836	0.51379716
208	0x3f4b1544	0.79329324
209	0x3ec3aacc	0.38216245
210	0xba65bfaf	-0.000876422
211	0xbfa1ccba	-1.2640603
212	0xbee0b056	-0.43884534
213	0x3f121fac	0.5707958
214	0x3facf4fc	1.3512263
215	0xbd0b417d	-0.033998
216	0xbdd7a9d1	-0.10530437
217	0xbfaa83e6	-1.3321502
218	0xc03372d5	-2.8038838
219	0x3ec00b40	0.37508583
220	0xbf10c83d	-0.5655554
221	0xbed10e19	-0.40831068
222	0x3fa096bf	1.2546004
223	0xbf04e1e3	-0.51907176
224	0x3d84e4a9	0.06488926
225	0xbe21a6cd	-0.15786286
226	0x3ee320cb	0.44360957
227	0xbdd3ee0f	-0.103481404
228	0x3de97c46	0.114006564
229	0xbc335be2	-0.0109472
230	0xbe7a79ee	-0.24460575
231	0x3f98d77e	1.1940763
232	0x40087f42	2.1327672
233	0x3e8d2341	0.2756596
234	0x3ccf465a	0.0253021
235	0x3ddcff36	0.10790865
236	0x3f8a61f4	1.0811143
237	0xbfa53401	-1.2906495
238	0x3d136b4c	0.035991
239	0x3d1f4211	0.038881365
240	0xbfd21e13	-1.6415428
241	0x3fbe16d2	1.4850714
242	0xbf485d29	-0.7826715
243	0xbe93eb23	-0.28890333
244	0x3f74835f	0.95512956
245	0xbe0a9c1b	-0.13536112
246	0x3e545f34	0.20739442
247	0x3e565706	0.20931634
248	0xbf646eb1	-0.892314
249	0x3d9e3c19	0.077263065
250	0xbe1891af	-0.14899324
251	0x3d1a90f6	0.0377359
252	0x3d096a0c	0.0335484
253	0xbd9878ba	-0.07444902
254	0x3d6655a9	0.056234036
255	0x3c71b40d	0.0147524

MatMul_H3.bias f4 [50]
0	0xbf6346d6	-0.8877996
1	0xbf47cf7b	-0.78050965
2	0xbf005901	-0.5013581
3	0x3ec8fc09	0.39254788
4	0x3ee29d3b	0.44260582
5	0x3f14666e	0.57968795
6	0xbf8393ed	-1.0279518
7	0xbf7f88d8	-0.9981818
8	0xbd8aee3e	-0.06783722
9	0x3fb0f596	1.3824947
10	0x3f694080	0.91114044
11	0x3f22c963	0.6358854
12	0xbe226871	-0.15860154
13	0x3ef5e89b	0.48029026
14	0x3eb6ac2b	0.3567823
15	0x3dd587b1	0.10426272
16	0x3f36a853	0.7135059
17	0x3f6c1ffc	0.92236304
18	0xbfcf1a24	-1.6179852
19	0xbe4ab569	-0.19795765
20	0xbede21d0	-0.43385172
21	0x3e50d51c	0.20393795
22	0x3f0c9b2e	0.54924285
23	0x3ecbec21	0.3982859
24	0xbf5f9761	-0.8734036
25	0x3f9f26d5	1.2433726
26	0xbe9eaf5d	-0.30993167
27	0xbee0fdc8	-0.4394362
28	0xbf35f0d7	-0.7107062
29	0x3f10c1a9	0.565455
30	0x405a9983	3.4156196
31	0xbf321ddc	-0.6957681
32	0xbee4502e	-0.44592422
33	0xbf226b4a	-0.6344496
34	0xc003ef9a	-2.061499
35	0xbf8515e8	-1.039731
36	0x3ca6dd58	0.020369217
37	0xbe807a19	-0.25093153
38	0xbf610e18	-0.8791213
39	0xc028d983	-2.6382759
40	0xbcfdd6c5	-0.0309862
41	0xbf7ff487	-0.99982494
42	0xbf86eacf	-1.0540408
43	0xbe5babed	-0.21452303
44	0xbf3842cf	-0.7197694
45	0xbf1279ac	-0.57216907
46	0xbfd37d1d	-1.6522557
47	0xbf402fc7	-0.750729
48	0x3dd025e3	0.10163476
49	0x3c81767e	0.015803572

MatMul_H4.weight f4 [50, 50]
0	0xbe413cc1	-0.18870832
1	0xbe949f8c	-0.29027975
2	0x3d226747	0.039649274
3	0xbe10840a	-0.14112869
4	0xbd7b17fd	-0.061302174
5	0xc01c317d	-2.4405205
6	0xbf479cfc	-0.77973914
7	0x3efd1219	0.4942787
8	0xc02f8e92	-2.7430768
9	0x3e8b80ec	0.27246797
10	0xbe5b546e	-0.21418926
11	0x3f02fad8	0.5116401
12	0x3ede3da4	0.43406403
13	0x3f74050a	0.9532019
14	0xbebb65e1	-0.36601165
15	0xbfd2309c	-1.6421084
16	0x3e4b6a7c	0.1986484
17	0x3f8af44a	1.0855801
18	0xbee93c09	-0.45553616
19	0xbe0c965e	-0.13729236
20	0x3f896db2	1.0736601
21	0xbfca7f6b	-1.5820135
22	0xbf1443f3	-0.5791618
23	0x3f1b3d57	0.6064047
24	0x3fae80ba	1.3633034
25	0xbeb9f649	-0.36320713
26	0x3f669110	0.900651
27	0x3ea950c5	0.33069435
28	0x3e7987f8	0.24368274
29	0x3f11f444	0.57013345
30	0xbe0e7f44	-0.13915735
31	0xbe4f8328	-0.20264876
32	0x3ddbe368	0.10736734
33	0x3e627ea9	0.2211863
34	0xbf323c44	-0.6962321
35	0x3e603f5d	0.21899171
36	0xbd8df0e2	-0.069307104
37	0x3c38f076	0.011287799
38	0x3fc33dbb	1.5253214
39	0xbda7ab39	-0.08186955
40	0x3c93b0b7	0.0180286
41	0x3f289091	0.6584559
42	0xbfb71a6a	-1.4304936
43	0xbfb2f884	-1.3982091
44	0x3f3f807b	0.7480542
45	0xbfbe6eb7	-1.4877537
46	0x3d987530	0.07444227
47	0xbddd81e0	-0.10815787
48	0xbeb3bc77	-0.35104725
49	0x3eea1356	0.45717877
50	0xbe83d8eb	-0.25751433
51	0x3d3d635f	0.046237346
52	0x3f13fe0e	0.5780953
53	0x3f20a3dd	0.62750036
54	0xbce28a1c	-0.027653746
55	0x3ef6af9f	0.48180863
56	0xbda1d929	-0.07902748
57	0x3e8421d9	0.25807074
58	0xbf868eaa	-1.0512288
59	0x3e8c0ee9	0.27355126
60	0xbea516ea	-0.32244045
61	0xbda59215	-0.080845036
62	0xbe5f7552	-0.21822098
63	0x3fa265dc	1.2687335
64	0xbe11e818	-0.14248693
65	0xbf2697fc	-0.6507566
66	0xbdd6af73	-0.10482683
67	0xbfb9b0a8	-1.4507036
68	0xbd430bf5	-0.047618825
69	0xbe3607fb	-0.17776482
70	0xbf0747c5	-0.52843887
71	0xbf230484	-0.63678765
72	0x3da65618	0.0812189
73	0xbe80c0d6	-0.25147122
74	0x3f07414a	0.52834
75	0x3cb9ac6b	0.022665223
76	0xbd73ea29	-0.059549484
77	0xbeb37e59	-0.35057333
78	0x3e8559f2	0.26045185
79	0x3c4cc916	0.0124991145
80	0xbf244166	-0.6416229
81	0xbecc8447	-0.3994467
82	0x3ee0b6ba	0.4388941
83	0xbf431218	-0.76199484
84	0xbe49f6e3	-0.19723086
85	0x3e466a9f	0.1937661
86	0xbebeddf3	-0.3727871
87	0xbd58e9ae	-0.05295723
88	0x3f52411c	0.821306
89	0xbdd695e6	-0.104778096
90	0xbd09ed39	-0.0336735
91	0xbfbcab6c	-1.4739814
92	0x3e8f977c	0.2804526
93	0xbfd2ec21	-1.6478311
94	0x3dbf7e41	0.09350253
95	0x3e2b7005	0.16741951
96	0x3eaca4ed	0.33719578
97	0xbe817c08	-0.2528994
98	0x3c0be5ad	0.008538646
99	0x3f3364bd	0.7007559
100	0xbdf78800	-0.12086487
101	0x3e5bc863	0.2146316
102	0xbf82bea6	-1.0214431
103	0xbeb5d352	-0.35512787
104	0x3c2a5a7b	0.010397549
105	0x3f855394	1.0416131
106	0x3eb297e1	0.348815
107	0xbe0a36df	-0.13497494
108	0x3f9b9a08	1.2156382
109	0xbe944a6f	-0.28963038
110	0x3eec3e56	0.4614131
111	0xbf0e78a1	-0.55652815
112	0x3e449a71	0.1919954
113	0xbe90eda2	-0.283063
114	0xbee6b9ae	-0.45063537
115	0xbf74d090	-0.9563074
116	0xbf57528f	-0.8411035
117	0xbde3e11e	-0.11126922
118	0x3f331b3d	0.6996344
119	0xbf8c1be9	-1.0946018
120	0x3f9dd044	1.2329183
121	0x3edc6d17	0.4305198
122	0xbf2f5b8d	-0.6849907
123	0x3ead0ca0	0.33798695
124	0x3e2f7dcc	0.17137831
125	0xbe8bd7a7	-0.27312967
126	0x3daa3654	0.083111435
127	0xbeae7c6c	-0.340793
128	0xc0a0dcf0	-5.02697
129	0xbf87b532	-1.0602171
130	0x3f046cc7	0.5172848
131	0xbf13e6a2	-0.5777379
132	0x3f2d4566	0.6768402
133	0x3f1d86ab	0.6153361
134	0xbeb4d9b1	-0.35322335
135	0xbf0cf915	-0.5506757
136	0xbe729cfd	-0.23692699
137	0xbf93176f	-1.1491526
138	0x3db13773	0.08653154
139	0xbf054511	-0.5205851
140	0x3c9c76f9	0.0190997
141	0x3dd3a405	0.103340186
142	0xc005d8af	-2.0913503
143	0x3d5c0987	0.053720023
144	0x3e50f965	0.20407636
145	0x3f1f1763	0.6214506
146	0xbda1a70f	-0.07893192
147	0xbf49b7b1	-0.78795916
148	0x3eaa648b	0.33279833
149	0xbe8b3890	-0.2719159
150	0x3d38ec28	0.04514709
151	0xbe48b310	-0.19599557
152	0x3e5f86e5	0.21828802
153	0x3dd4e9a4	0.10396126
154	0xbde13dc8	-0.10998112
155	0xc091b7f8	-4.553707
156	0x3e812f20	0.25231266
157	0x3e6866d9	0.22695483
158	0xbea3382c	-0.31878793
159	0x3db2f80b	0.08738717
160	0x3e2e34ce	0.17012331
161	0x3fa131d2	1.2593329
162	0x3ec8d8ec	0.39227998
163	0x3e79c750	0.24392438
164	0x3b2bbda6	0.0026205569
165	0xbf294e46	-0.6613506
166	0x3eef8ef8	0.46788764
167	0xbda0618b	-0.07831105
168	0xbcfd2c90	-0.030905038
169	0x3e40b879	0.1882037
170	0x3d570f5f	0.052504893
171	0x3f1e04cf	0.6172609
172	0x3d806f67	0.06271248
173	0xbeb3ac85	-0.3509256
174	0xbeb23b3a	-0.3481081
175	0xbdc4a1a6	-0.096011445
176	0xbdebdfd9	-0.11517305
177	0x3ecd4d39	0.4009798
178	0xbea023bb	-0.3127726
179	0x3e2ea626	0.17055568
180	0xbe20988c	-0.15683192
181	0x3dd0c3f7	0.10193627
182	0x3f2f9a7b	0.68595093
183	0x3e183edc	0.14867729
184	0xbe96bda3	-0.29441556
185	0xbd92ff45	-0.07177595
186	0xc0152e02	-2.330933
187	0xbf9caa1c	-1.2239413
188	0xbf24522d	-0.6418789
189	0xc14cb99f	-12.795318
190	0xbb8050f3	-0.0039159
191	0x3e39245a	0.18080273
192	0x3dd3a8d1	0.103349335
193	0x3dd62013	0.104553364
194	0xbe90e8fe	-0.2830276
195	0x3f66ffd8	0.90234137
196	0x3d9b725a	0.0759017
197	0x3ee1557a	0.44010526
198	0xbeb0a9bc	-0.34504497
199	0x3eba25f5	0.36357084
200	0x3d0a27f2	0.0337295
201	0xbd0b4528	-0.0340015
202	0xbd00da00	-0.0314579
203	0xbbb9257b	-0.00565022
204	0xbd4a3e62	-0.0493759
205	0xbd4f2b16	-0.0505782
206	0xbb7102e2	-0.00367754
207	0x3805edf9	3.19313e-05
208	0xbc59e188	-0.0132984
209	0xbcd70210	-0.0262461
210	0xbaa0a653	-0.00122566
211	0xbcea0f68	-0.0285718
212	0xbc475cb6	-0.0121681
213	0xbd3f7073	-0.0467381
214	0x3cf8c75c	0.0303685
215	0xbb6d55ae	-0.00362144
216	0x3cd3de39	0.0258628
217	0xbd361998	-0.044458
218	0xbcc06fc7	-0.0234908
219	0x3c9aea31	0.0189105
220	0x3c314446	0.0108195
221	0xbd1b1eba	-0.0378711
222	0x3c8926f0	0.0167422
223	0xbd6a25be	-0.0571649
224	0xbca812a3	-0.0205167
225	0xbd0b851f	-0.0340625
226	0xbcabf338	-0.02099
227	0xbd953727	-0.0728591
228	0x3d043ea4	0.0322863
229	0x3cc54e1e	0.0240851
230	0xbcea1222	-0.0285731
231	0x3c0c7c25	0.00857452
232	0x3b2e7f85	0.00266263
233	0xbd098f96	-0.0335842
234	0x3cb3db9a	0.0219553
235	0xbb86668c	-0.00410158
236	0xbc8c0e2b	-0.0170966
237	0xbc95eda8	-0.0183018
238	0xbc89fbcd	-0.0168437
239	0xba080ad1	-0.00051896
240	0xba3266df	-0.000680549
241	0x3c0face6	0.00876925
242	0x3d17d630	0.0370695
243	0x3a066d06	0.000512794
244	0xbb48117c	-0.0030528
245	0xbbde228b	-0.00677902
246	0xbb6d8681	-0.00362435
247	0xbbff4d68	-0.00779121
248	0xbb9b095b	-0.00473134
249	0xbcc28d43	-0.023749
250	0x3e6c71fc	0.23090357
251	0x3d2da9dd	0.042398322
252	0xbdf835e4	-0.12119654
253	0xbce8ad83	-0.02840305
254	0xbd85714c	-0.0651575
255	0x3eb4a21c	0.3527993

MatMul_H4.bias f4 [50]
0	0xc04690de	-3.102592
1	0xbfd1056c	-1.632978
2	0xbf4c2201	-0.79739386
3	0x3f08655c	0.5327966
4	0xbc948a66	-0.0181324
5	0x3f5ee038	0.8706088
6	0x3dd4ab91	0.10384286
7	0xbe83ab8d	-0.2571682
8	0xc030318a	-2.7530236
9	0xbefec1f0	-0.49757338
10	0xc059db2e	-3.4040027
11	0x3fc5362a	1.5407155
12	0x3f806585	1.0030981
13	0xc01e71fa	-2.4757066
14	0xbdbf8a67	-0.0935257
15	0x3e9c9bd4	0.30587637
16	0xbf15de0a	-0.5854193
17	0xbd777b95	-0.06042059
18	0xbe19333a	-0.14960948
19	0xbebcce0e	-0.36875957
20	0x3f072e0c	0.52804637
21	0x3e8d9956	0.2765605
22	0x3e23de35	0.16002734
23	0xbfcde31e	-1.6084936
24	0x3fd66280	1.674881
25	0xbfbc8cab	-1.4730428
26	0x3f45019e	0.7695559
27	0x3df0e7ef	0.11762988
28	0xbf108821	-0.56457716
29	0xbdcd863e	-0.1003537
30	0xbe5eeeb1	-0.21770741
31	0xbf47593a	-0.77870524
32	0xbe9c2065	-0.30493465
33	0xbed7c9ec	-0.42146242
34	0x3e09ccbf	0.1345701
35	0x3dc8a0a8	0.09796268
36	0x3fde2897	1.7356137
37	0xbe9e27c9	-0.3088973
38	0xbf7a844f	-0.97858137
39	0xc004b365	-2.0734494
40	0x3f06f723	0.5272085
41	0xbfaa5dd3	-1.3309883
42	0x3ef49c33	0.4777542
43	0xbdc920c4	-0.09820703
44	0x3ebf9f75	0.37426344
45	0x3fda8bff	1.7073973
46	0x3fd74a5b	1.6819566
47	0x3f28b02f	0.65893835
48	0xbefe773c	-0.49700344
49	0x3f41bb1f	0.7567615

MatMul_H5.weight f4 [50, 50]
0	0xbf3a3371	-0.72734743
1	0xc04deb63	-3.2174919
2	0x3e0c0262	0.13672784
3	0x3ca3b49e	0.019983586
4	0xbc207b2a	-0.00979499
5	0xbebd8ffe	-0.3702392
6	0x3d4a413a	0.04937861
7	0x3d8ee1d3	0.06976666
8	0x3bcd1b30	0.0062593445
9	0xbea6e0a3	-0.3259326
10	0x3f0db340	0.5535164
11	0xbef63c69	-0.48092964
12	0xbdd911ee	-0.10599123
13	0xbe0ecdbc	-0.13945669
14	0xbef5428f	-0.47902343
15	0xbdcf624f	-0.10126173
16	0x4007c8cd	2.121631
17	0x3f1ea0ff	0.6196441
18	0x3f382f9d	0.7194765
19	0xbe3046ae	-0.17214462
20	0x3f43c88f	0.76477903
21	0x3dde2f57	0.10848873
22	0xbe9d66aa	-0.3074239
23	0x3dbce292	0.09222902
24	0x3e154a55	0.14579137
25	0xbf30fa97	-0.6913237
26	0x3dca4028	0.09875518
27	0x3d5b6536	0.05356332
28	0x3f34dce1	0.70649534
29	0x3e19a459	0.150041
30	0xbed1bdb0	-0.40965033
31	0xbeb449d0	-0.35212564
32	0x3ece77c5	0.40325752
33	0xbeb9abeb	-0.36263976
34	0xbf494863	-0.7862608
35	0xbec938bc	-0.39301097
36	0xbe8629b7	-0.262037
37	0x3f2d2589	0.676354
38	0xbdbe6358	-0.09296292
39	0xbf77fe6b	-0.96872586
40	0x3f24b630	0.64340496
41	0x3e7339cb	0.23752515
42	0xbf03109e	-0.5119723
43	0xbf21200c	-0.62939525
44	0xbe985c38	-0.29757857
45	0xbfb7677b	-1.4328455
46	0x3e2ea711	0.17055918
47	0x3f0da26c	0.5532596
48	0xbcc4a39e	-0.0240038
49	0x3ee59314	0.44838774
50	0xbf0dba67	-0.5536255
51	0xc00d16bc	-2.2045126
52	0x3f42d19a	0.76101077
53	0x4018a0b0	2.3848076
54	0x3c257499	0.0100986
55	0x3e89a60c	0.26884496
56	0xbe910a40	-0.28328133
57	0xbe4d3428	-0.20039427
58	0xbe1f8f5b	-0.1558203
59	0x3d6466cd	0.0557621
60	0x3e9394dc	0.28824508
61	0xc0597bb6	-3.3981757
62	0xbd933d9f	-0.07189488
63	0xbf428a11	-0.7599192
64	0x3e7c3064	0.24627835
65	0x400997a4	2.1498804
66	0xbfb5c405	-1.4200445
67	0x3e864a7c	0.26228702
68	0xbf5a02e6	-0.8516067
69	0xbfaeda1c	-1.3660312
70	0x403f15ce	2.9857059
71	0x3e23260e	0.15932485
72	0xc142d1db	-12.176234
73	0x40136589	2.3030722
74	0x3ec94771	0.39312318
75	0x3e168f11	0.14703013
76	0xbe8ac8e7	-0.271064
77	0xc02d79a2	-2.7105489
78	0x3fdc6b59	1.722026
79	0xbe9b0b4c	-0.30282056
80	0x3f5d2664	0.86386704
81	0xc1125793	-9.14638
82	0xbe3d73c1	-0.18501188
83	0x3f8ec18a	1.1152813
84	0xbf365004	-0.71215844
85	0xbe00f211	-0.12592341
86	0x3e7fae9d	0.24968953
87	0x3f7c0762	0.98448765
88	0x3fc12e9e	1.5092351
89	0x3fae4745	1.36155
90	0xbf2e2b99	-0.68035275
91	0xbf510288	-0.8164449
92	0xbe987c73	-0.29782447
93	0xbee6c965	-0.45075527
94	0x3f76d6bb	0.964214
95	0xbd83c829	-0.06434662
96	0xbf376a40	-0.716465
97	0x3fca399c	1.5798831
98	0xbe14febd	-0.145503
99	0xbd8d9daa	-0.06914838
100	0xbd652b2a	-0.055949368
101	0xc00f889b	-2.2427127
102	0xbddee74b	-0.108839594
103	0xbe0e3d3c	-0.13890547
104	0x3bc6cd6f	0.00606697
105	0x3d4c43fb	0.04986952
106	0x3d6b3c70	0.057430685
107	0x3c84dbf9	0.016218172
108	0x3dba43cb	0.09094962
109	0xbf961230	-1.17243
110	0x3dea3db6	0.11437552
111	0xbeb99f88	-0.36254525
112	0xbd13cb91	-0.036082808
113	0xbdf34327	-0.11878043
114	0xbe8758aa	-0.26434833
115	0x3e458d41	0.19292165
116	0x4054201f	3.3144605
117	0x3ec83abb	0.39107308
118	0x3ef6f8d3	0.48236713
119	0xbd38093e	-0.04493069
120	0x3e98aed0	0.2982087
121	0xb93c312c	-0.00017947395
122	0xbe933df2	-0.28758198
123	0xbd864858	-0.06556767
124	0x3da5ce6d	0.08096013
125	0xbca731e6	-0.020409536
126	0xbe8a7c02	-0.27047735
127	0xbe4b8ec6	-0.19878682
128	0xbd76885e	-0.060188644
129	0x3e18182e	0.14852974
130	0x3e7dea23	0.24796347
131	0xbe63081a	-0.22171059
132	0xbe1e58f0	-0.15463614
133	0xbccdb7f8	-0.025112137
134	0xbec96e63	-0.3934203
135	0xbea54a6b	-0.3228334
136	0xbdca5be8	-0.09880811
137	0xbeb35c13	-0.35031185
138	0x3c512c07	0.012766845
139	0xbe4cb28e	-0.19989988
140	0xbe3c2c4d	-0.18376274
141	0xbe0866f1	-0.13320519
142	0x3b73f9d9	0.0037227778
143	0x3ddde9cb	0.10835608
144	0x3e4b7e36	0.19872364
145	0xbe832186	-0.25611514
146	0x3d3fcf4a	0.046828546
147	0x3d993ec2	0.07482673
148	0xbf6a399c	-0.91494155
149	0x3f0984e8	0.53718424
150	0xbe1df238	-0.1542443
151	0x3e58eef7	0.21184908
152	0x3c04db3d	0.008108911
153	0x3df027c4	0.11726335
154	0xbd372d94	-0.0447212
155	0x3e82799c	0.25483406
156	0x3d8b7e1e	0.06811164
157	0x3e106f77	0.1410502
158	0x3d9cd324	0.076574594
159	0xbd72ac9d	-0.059246648
160	0xbe5901a1	-0.21192028
161	0x3dd5ad7d	0.10433481
162	0xbd81e39d	-0.06342242
163	0xbecf2bb0	-0.40463018
164	0x3c97a3e3	0.018510764
165	0x3d5d88aa	0.05408541
166	0x402a3553	2.6595047
167	0x3d1e4151	0.03863651
168	0xbe11c748	-0.14236176
169	0xbe676e63	-0.22600703
170	0xbf1007ce	-0.5626191
171	0x3db3531b	0.087560855
172	0xbf01922c	-0.50613666
173	0x3caba9fe	0.020955082
174	0xbde3681c	-0.11103842
175	0xbdf059ff	-0.117359154
176	0x3d5091c3	0.05092026
177	0x3e42ce48	0.19024003
178	0xbe0bf9e7	-0.13669549
179	0xbde65b9c	-0.11247942
180	0x3e9891c2	0.29798704
181	0xbdc135c4	-0.09434083
182	0xbe48c750	-0.19607282
183	0x3d12709b	0.03575192
184	0xbe3e15c0	-0.18562984
185	0xbd4d8fc3	-0.05018593
186	0x3da5fd50	0.08104956
187	0x3f0fc00f	0.56152433
188	0x3efe782c	0.4970106
189	0xbca02c32	-0.019552324
190	0xbc129e3f	-0.008948862
191	0xbdcf637b	-0.10126396
192	0x3d56f177	0.052476373
193	0xbdd60a90	-0.104512334
194	0xbea23f0b	-0.31688723
195	0x3e54ae35	0.2076958
196	0x3c4e7f25	0.012603556
197	0x3d6e60c7	0.058197763
198	0x3e223109	0.15839018
199	0xbcaa7b56	-0.020810764
200	0x3edf8bac	0.4366125
201	0xbfdfa382	-1.7471774
202	0x3f86821b	1.0508455
203	0x3f0da3d6	0.5532812
204	0xbc66cf42	-0.0140875
205	0x3f021fce	0.5082978
206	0xbee470e6	-0.44617385
207	0xbf33054c	-0.6992996
208	0xbe7f593d	-0.24936385
209	0xbf06acf8	-0.5260768
210	0xbdda2fb9	-0.106536336
211	0xbf4f19e7	-0.808989
212	0x3ea9067a	0.33012754
213	0xc01305f0	-2.2972374
214	0xbfdb695b	-1.7141527
215	0xbf51534a	-0.81767714
216	0xbe1f2ee6	-0.15545234
217	0x3f83efea	1.0307591
218	0x3ee49c22	0.4465037
219	0x3e17b28d	0.14814205
220	0x3f9ccb50	1.2249546
221	0x3d29bfff	0.041442867
222	0x3fa9f406	1.3277595
223	0xbf90572c	-1.1276603
224	0xbf994583	-1.1974338
225	0xbf47bc61	-0.7802182
226	0xbf09cbdb	-0.53826684
227	0xbe265048	-0.16241562
228	0x3fb9da96	1.4519832
229	0x3ef72a0f	0.48274276
230	0xbf39c080	-0.72559357
231	0xbea1d8b3	-0.3161064
232	0xbc9e2bbf	-0.01930797
233	0xc0a3dac9	-5.120457
234	0x3f381a2f	0.71914953
235	0x3e12db67	0.14341508
236	0x3ef67c91	0.48141912
237	0x3e8dceea	0.27696925
238	0xbf7e2100	-0.99269104
239	0x3ec6b648	0.38810945
240	0x3ea7be7c	0.32762516
241	0x3f275a62	0.6537229
242	0xbdcd927a	-0.10037704
243	0xbd580d18	-0.052746862
244	0xbe93e8c4	-0.28888524
245	0xbfa50f84	-1.289536
246	0xbec6e6d1	-0.38847974
247	0x3f0bec9c	0.5465791
248	0xbfe0c83c	-1.7561107
249	0xbe1bb22b	-0.15204684
250	0xbd9465e9	-0.07246
251	0x3ddcb7fe	0.10777281
252	0x3da05d2a	0.0783027
253	0xbe867ae3	-0.2626563
254	0x3c7a2ad4	0.015269
255	0xbe4bb368	-0.19892657

MatMul_H5.bias f4 [50]
0	0xbeae205f	-0.34009072
1	0xbfd21929	-1.6413928
2	0xbe4b2f79	-0.19842328
3	0xbe3d7922	-0.1850324
4	0xbfe496a3	-1.7858471
5	0x3e0b8c6e	0.13627788
6	0x3e2bcbbb	0.16776936
7	0x3dd6da84	0.10490897
8	0xc019231b	-2.3927677
9	0xc08d7af8	-4.421261
10	0xbdab64be	-0.083688244
11	0xbfbf6ec3	-1.4955677
12	0xc063d130	-3.5596428
13	0x3f6a3023	0.914797
14	0xbec48a83	-0.38386926
15	0xbfa483ef	-1.2852763
16	0x3f0dc4c7	0.55378383
17	0x3d8c91ee	0.068637714
18	0xbe072af0	-0.13199973
19	0xbeea1c3e	-0.45724672
20	0xc00034f2	-2.0032315
21	0xbef1bfeb	-0.47216734
22	0xc0a2a18f	-5.0822215
23	0xbe670486	-0.2256032
24	0x3cf33b61	0.0296914
25	0x3e5e9722	0.2173734
26	0x3e62cb54	0.22147876
27	0xbf33b7a1	-0.7020207
28	0xbed755f7	-0.42057773
29	0x3e48bfbb	0.1960439
30	0x3dfa16af	0.12211358
31	0x3dc30224	0.09521893
32	0xc0ba0061	-5.8125463
33	0xbfcfb07b	-1.6225733
34	0x3fd9ebfd	1.7025143
35	0xbe57498b	-0.21024148
36	0x3e6ec117	0.23315845
37	0x3ef62a00	0.48078918
38	0xbf0c25eb	-0.5474536
39	0xbf9ab963	-1.2087826
40	0x3e718945	0.2358752
41	0xbf5c7421	-0.861147
42	0xbdb18b3c	-0.08669135
43	0x3e876401	0.26443484
44	0x3eced07e	0.40393442
45	0x3fa51e78	1.2899923
46	0x3f1ff9a8	0.6249032
47	0x3b7a236a	0.003816808
48	0x3e357034	0.17718583
49	0xbdd695a6	-0.10477762
