ACAS_Xu/models/4_repair.pth (torch, 57901 bytes, 14 tensors)

MatMul_H0.weight f4 [50, 5]
00000000: 8abe 42bf 3e6c 37be 582a 9c3d bc62 07be
00000010: 7695 a53c 372f fabe 336e 583d f678 e33c
00000020: 6f2a d4be bcce e43e 74af c2bf 13f0 803d
00000030: c78e cebc 173c 1ebd 4e72 d03c 0b55 a53e
00000040: 5505 d63f 1e2c 35bf c7ad 393e 42d1 13be
00000050: abdf 81bf 1983 d33c e498 34bf 8740 a13b
00000060: 5ae5 973d 070e 31bc bfd8 cfbe 5e8f 49bf
00000070: 6130 78be 7d3a f83d 45af febb 306e d63b
00000080: d21c 8d3d 5600 363d e2dd 153f a8a8 adbd
00000090: a0ca ac3f 44ea bbbe 0d27 2abe 1499 f53c
000000a0: b58f da3a 47d2 823e c7b8 42be 526b 583f
000000b0: 881a e53e a90c ddbf f607 a63c 99e3 6a3c
000000c0: d2b2 adbc e2e6 9e3c 4734 e0be 7048 c7bd
000000d0: 4cc0 b43d a1af c83e a77a 9bbe 31f8 8bbf
000000e0: 8816 09be 829d 353e 05a1 4abd cf5e ae3c
000000f0: de08 5abf 3490 62bc e53a 12be 2191 aabe
00000100: 9bf3 403e 4d02 90be b760 95bf d902 893f
00000110: 71d0 53bd 06fd a6be f9c1 e1be 8df6 593c
00000120: 1297 1d38 27ce 71bf e50a babe 37ec cabb
00000130: d5d0 e5bb 9716 9a3a 30e1 4638 0b27 c83b
00000140: 0ada c3bb c87b 153e 53eb 85be 1bba 21bf
00000150: 7940 8dbf 9667 85bd c9be 893f 69b9 6b3f
00000160: db08 fb3e 2013 a8be 6999 253b e02e 79bc
00000170: 89c3 f3bf 5f32 a63c e5c0 0dbd cae0 c0bf
00000180: f402 793c 3fc1 a63c 5f7c fdbb c86d e0bd
00000190: 8dbc 04bd 4313 c0bd 4968 3a3e abb4 2e3e
000001a0: 2b28 93bf f35f 6cbd 2518 c8bf 5d26 e53f
000001b0: 6b1c cebc 1d56 5a3e 1a66 bdbd b725 f23c
000001c0: cceb 0a3c fa78 4dbd 4930 85bd e037 053e
000001d0: 5629 373d d551 a63f 331e 91bb 86d2 78bd
000001e0: c498 14bd 6188 bcbd ec01 693d 787b 08bf
000001f0: 3c83 66bf 5b86 d6be d107 a73e d331 46be
00000200: 7f06 4fbc 8c0e 4e3d 41e0 373c 03ec e1bb
00000210: 2b0e 8cbc acfd 9d3b 91a4 5e3b 61c9 02bd
00000220: 7ef2 a2bd 12b6 023e 8277 81bf 6945 5dbf
00000230: a228 44bf 478e 15bb 5e75 ae3c f984 2cbf
00000240: c687 f1be 9a96 d3bc 8139 0940 79c1 fabb
00000250: 8935 603d 7f17 d0bd d6d3 7d3c 2eae 113d
00000260: bea8 b83c ae82 48be 2eca d0bf 5215 8dbc
00000270: 9c95 3c3e ff95 3cbe 9589 cfbf def8 a3be
00000280: 79e7 4a3c 8590 a0bd 5309 233e 274b 77bf
00000290: 6322 b6bf cadf a0bb fa7c a6bd dda1 0c3e
000002a0: af51 26bf 10a5 01be 5499 b9bf c8a6 183c
000002b0: 618c 193e 74a3 5abe b3f5 f2bc d034 9ebe
000002c0: f09e 9a3f b806 a3bf c94c fb3d b32c c0be
000002d0: f7e8 243d 6690 723f f857 453f 9bd6 82be
000002e0: e63e 7a3e 913c 41bd 49b9 1ebc bd8d 21bf
000002f0: 4031 223e c8eb 31bf 9b76 87bf 3104 48bc
00000300: c978 01bd 7da4 f7be b1f2 2ebd 6908 f43c
00000310: 7b1d 203e 9244 4ebe c484 26bf 2334 fb3e
00000320: ce8d 533d effc 33bf 9ac1 7bbf 0899 6a3c
00000330: 892a dabc 0abf 9dbc efbe 19bf 20f1 45bf
00000340: e8ab f33e 1da7 5cbe 4190 88bf d550 9c3d
00000350: 9972 333d 2b01 8dbe 8ac8 9dbe c691 ea3d
00000360: 2f0e 843f 0d1c 96bf 7ed8 80be eb1b 3e3f
00000370: 29a7 d7bf e1ad f63c 6776 ba3c da8d 083d
00000380: 8b86 2b3d 42b5 b73c 7607 993d 2c68 7cbd
00000390: 80c3 91bf beaa 3c3f b18d 13bd 3546 ebbd
000003a0: 42b8 1dbc 84bd 453f 562b bfbf 6e58 b43e
000003b0: 08b7 00c0 f245 c13e 08d1 75bc 862b cdbd
000003c0: 9281 863c 95b1 683f 8bab afbf 59ad c8bd
000003d0: 1efe 8dbe d6ce 8d3c 0466 dc3d bee8 4f3f
000003e0: e7f8 b7be b01e 81be
-0.7607199 -0.17912385 0.07625264 -0.13221258 0.02021287 -0.48864147 0.05283947 0.02776764
-0.41438624 0.44688976 -1.5209794 0.062957905 -0.025214566 -0.038631525 0.02544513 0.32291445
1.6720377 -0.7077044 0.18132697 -0.14435294 -1.0146383 0.025819348 -0.7054579 0.0049210223
0.07416792 -0.010806567 -0.40595052 -0.78734386 -0.24237205 0.12120531 -0.0077723586 0.006543897
0.06890263 0.044433914 0.5854169 -0.08479434 1.3499336 -0.36702168 -0.16616459 0.02998022
0.0016674908 0.25551054 -0.190158 0.8453876 0.44746804 -1.7269489 0.020267468 0.01433649
-0.021203432 0.019397203 -0.43789884 -0.09730613 0.0882574 0.39196494 -0.30367014 -1.0935117
-0.13387501 0.17735866 -0.049469966 0.021285443 -0.8516978 -0.013828326 -0.14280279 -0.3331385
0.18842928 -0.28126755 -1.167014 1.0703994 -0.051712457 -0.32614917 -0.44093302 0.013303411
3.7572412e-05 -0.9445519 -0.36336437 -0.00619271 -0.00701342 0.0011756 4.74166e-05 0.00610817
-0.00597692 0.14598 -0.261561 -0.631746 -1.10353 -0.06513898 1.0761348 0.9207979
0.49030194 -0.3282709 0.0025268442 -0.01520893 -1.9044048 0.02028769 -0.034607787 -1.50686
0.015198458 0.020355819 -0.0077357735 -0.10958439 -0.03240638 -0.09378674 0.18203844 0.17061107
-1.1496633 -0.05770869 -1.5632368 1.7902333 -0.025160035 0.21321912 -0.0924799 0.029559
0.00847907 -0.0501642 -0.0650335 0.13009596 0.044717155 1.2993723 -0.004428649 -0.060747646
-0.0362785 -0.092057 0.0568866 -0.533134 -0.90044 -0.4189938 0.3262315 -0.19354944
-0.012635826 0.05030684 0.0112229 -0.00689459 -0.0170966 0.0048215 0.00339726 -0.03193033
-0.07956408 0.12764767 -1.0114596 -0.86434036 -0.766245 -0.00228204 0.0212962 -0.673904
-0.471739 -0.025828648 2.1441348 -0.0076524583 0.054738555 -0.101607315 0.0154924 0.0355665
0.0225414 -0.195811 -1.63117 -0.01722208 0.18416446 -0.18416594 -1.6213862 -0.32025808
0.012384289 -0.07840065 0.15921526 -0.9659905 -1.4229244 -0.0049094902 -0.08129306 0.13733621
-0.6496839 -0.12660623 -1.4499917 0.0093171075 0.14994957 -0.21351415 -0.029658174 -0.30899668
1.2079754 -1.2736425 0.12270505 -0.37534103 0.040261235 0.94751585 0.77087355 -0.25554356
0.24438056 -0.0471769 -0.00968773 -0.631069 0.158391 -0.695004 -1.058307 -0.012208031
-0.03160933 -0.48367682 -0.042711917 0.029789167 0.15636246 -0.20143345 -0.65046334 0.49063215
0.051648907 -0.7030782 -0.9834229 0.014318712 -0.02663161 -0.019256134 -0.60056967 -0.7732105
0.47592092 -0.21548124 -1.0669023 0.07632605 0.04381046 -0.27539954 -0.30817062 0.11453585
1.0316828 -1.172731 -0.2516517 0.7426135 -1.6847888 0.030112209 0.022761537 0.033338405
0.041876357 0.022425298 0.07472126 -0.061622784 -1.1387787 0.7369803 -0.0360238 -0.11488
-0.00962645 0.772423 -1.49351 0.35223716 -2.0111713 0.37748677 -0.01500345 -0.10018067
0.016419206 0.9089597 -1.3724226 -0.097986884 -0.2773294 0.017310541 0.107616454 0.8121451
-0.35932085 -0.25218725

MatMul_H0.bias f4 [50]
00000000: c6f5 ae3d 63e6 fcbd b4e1 45be 220e 2abd
00000010: 8f8a 80be a79d b53d 1446 543e b7d9 f5be
00000020: 2be7 51be 5378 b1be cd57 8dbc da9e e1bd
00000030: d67a 1fbe 3935 26bd 8471 28bf 4b91 bcbc
00000040: 9bad 28bf 52cf f6bd 177f 953b ed6f bcbe
00000050: 6dbb 923e a6dc c3bd 209a d9bd 4085 713d
00000060: 672a 10bf 96e3 24bb 5ab7 e6bc 1f58 81bd
00000070: 9cfd 31bf 226e 8d3d cd74 3bbf 7567 05bf
00000080: 2feb c9be 3884 123e f917 b7be 8c15 da3d
00000090: bd33 413e bf43 d1be 60f0 f3be 9e70 453d
000000a0: cee1 7f3c 467e 4fbd 4584 cebe 1fc8 51be
000000b0: 8dd9 dcbe c159 3abe 5167 5ebe e4c7 37bb
000000c0: ed73 3ebe 90b8 85be
0.08542971 -0.1234863 -0.1932438 -0.041517384 -0.25105712 0.088679604 0.20729858 -0.48017666
-0.2049834 -0.34662113 -0.01725378 -0.11016627 -0.15574202 -0.0405781 -0.6579821 -0.0230185
-0.658899 -0.12051262 0.0045622694 -0.36804143 0.2865862 -0.0956357 -0.106251 0.058964968
-0.563147 -0.0025160066 -0.0281636 -0.06315636 -0.695276 0.06905772 -0.732251 -0.5211099
-0.39437243 0.1430825 -0.35760477 0.10648641 0.18867393 -0.40872 -0.4764433 0.048203103
0.015617801 -0.050657533 -0.4033529 -0.20486496 -0.43134728 -0.18198301 -0.217191 -0.0028042728
-0.1859891 -0.26117373

MatMul_H1.weight f4 [50, 50]
00000000: d26b de3e 5b47 8bbf dcd7 883d 4410 133e
00000010: 6706 513f f8e4 863f dbd8 053e 527e ed3d
00000020: 5e84 323f c21a cbbd 5fdd 813f 5313 b5bc
00000030: b067 2a3e 4630 7f3e c503 28c0 bea3 46bc
00000040: d1b0 883e 7970 62be fbd1 bbbd b0b9 babe
00000050: 1d29 7b3f 599b 373e 61cf 4d3d ea44 bd3c
00000060: daac 023f 13be 313f 6795 3ebc 7e87 2b3e
00000070: de3c c1bf c540 6c3e 10ce df3e 7c19 263f
00000080: 30a1 96be c258 f1bf 2333 773d 21f3 92bd
00000090: cdd8 a4bb b3cd c53f da7d 79bf fd19 7b3d
000000a0: 5f80 72bf 3b25 1ebf a2e4 e23e b6e1 943f
000000b0: 2260 b9be 8256 01bf 1cb1 56be f0a3 a0be
000000c0: fb90 26bf 0d7f 32be f425 6abd de50 1dbb
000000d0: e71d 023d 7f56 743c 7f9f 333b 5b47 f03c
000000e0: ec56 65bd 1c65 18bd e473 1b3a 911a a4bc
000000f0: dc05 b5bb 5ffb 18bd 17f7 babc f65b e0bb
00000100: 5ca1 bc3b ad76 83bc 6ac9 5bbb b81c f13b
00000110: 0db9 23bd a19a 17bd 4bd8 ed3b bb38 3bbc
00000120: 04a9 393c 20a1 01bd 1520 453d fd77 8e3b
00000130: b42b a3bc 7138 b3bc 6e04 1a3c 8c90 703c
00000140: 541d b23c 02fb 23bd 7ea8 f43c d75d aa3c
00000150: 1f1f e33c 2118 91bc bdf0 b9bc adb8 1d3d
00000160: 1f38 d1b9 8500 4abd d3b0 093d c389 c33c
00000170: d47a a4bc 3110 7fbd 3bc6 153d d157 15bd
00000180: c47e 093c 8870 02bd 0095 85bc 9a3e 003d
00000190: 281e ae3e 9015 70be 73db b73b 8126 1b3f
000001a0: 87ae 2cbe e08f 083f 8897 83bf a1c7 17bf
000001b0: a594 05c1 5ccc 3fbe a22e 243f 9463 95be
000001c0: be09 373e 311a 693e c59b c83e cba4 a1bc
000001d0: bbb4 b9be 8900 0b3f fbe2 28bf 9dc2 f3be
000001e0: 70a1 ddbf 8ea8 52be 8c8c 943d eaf3 cf3e
000001f0: 9ab1 1c40 b967 2d3e aa9f d4bb c3dc 9a3f
00000200: 6ac1 bbbf 672e d4be 5c91 18be 73f7 9bbf
00000210: 9388 343e 31ca d83f 982e 35bd 4a04 393f
00000220: 2cd1 873e e449 e23f 458b 503e 5853 273f
00000230: 7f09 8d3e 0128 c73f 0a4a c6bd c0f3 263f
00000240: 2893 c93e 919b 863f 1d3e 89be 4741 953d
00000250: 8ed0 e0be b42b e33d 2d50 d1bd 01d8 0ec0
00000260: 537e 39bb a14a d03e 8eee 683d f9f6 12bf
00000270: 1342 cdbf 88f4 273f 9cc6 2f3e 885e 30bd
00000280: 9329 243f 45f1 0cbe 68eb 743e 4294 2fbf
00000290: a800 bcbf 3259 dcbb dcec c43d ccb6 403f
000002a0: e543 703e e3df d4be 1af2 90bd 9a98 0e3f
000002b0: 9e95 f6bb 0972 e63e 7731 0dbe 32de a7be
000002c0: 98b2 3dbd e700 883e acc6 b2bd 4f7d b33e
000002d0: e7c6 903f 211c a33d 633d 8d3f 6798 d2bf
000002e0: 8107 d8bd 3549 ca3e 8650 68bf 46b5 783f
000002f0: 32c8 20bf 4cea d43e 9dd7 80bf c1d9 b73c
00000300: f6ac f73d 6511 c9bf 35f8 943d 2407 85c0
00000310: 0abd 8ebe c213 0ebf ecda be3e f62c 5d3f
00000320: 23ae d23c 0f8b 24bb ca04 573c dbfe 70bd
00000330: 6a07 d2bc c158 3a3c 0c6c 9fbc 14e3 21bd
00000340: 069b 5fbc 47fb 443c d832 f03b 2209 11bd
00000350: e1db eabc ccd0 b8bc 72d9 cdbc 647d 9ebc
00000360: 014b 933c 5d6a 64bd 0fb3 fcbc c8d0 f1bc
00000370: 46fc b7bb 1fdc 78bc aa2b 1f3d 0d77 c93c
00000380: 36f7 80bb 6db2 a1bc 20e2 10bd bff5 5cbd
00000390: d405 21bd b899 253d 3f6f 2abc abe6 5e3c
000003a0: decd 2e3c 9b61 19bd 758b 653c a095 ea3c
000003b0: ab18 193c 9e56 9b3b 48ca 11bd 647d de3c
000003c0: f740 66bd f63c 243c 41f5 0dbc fd9b 5cbd
000003d0: 5e63 3cbd 25c1 e5bc dc16 80bc cfa5 13bd
000003e0: 266c a4bc ecb0 58bd f79c 433e 333f 093e
000003f0: accb 4a3d 1fc9 083f a6c4 93bf 3f3a 0140
0.43441635 -1.0881151 0.06681797 0.14361674 0.81650394 1.0538626 0.13071005 0.11596359
0.69733226 -0.09917213 1.0145682 -0.022103941 0.16641116 0.24920759 -2.62523 -0.012124
0.266974 -0.22113217 -0.0917091 -0.36469793 0.9810961 0.17930354 0.0502466 0.02310415
0.51045 0.69430655 -0.0116323 0.16750905 -1.50967 0.23071583 0.437119 0.64882636
-0.2941985 -1.8855212 0.060351502 -0.071752794 -0.0050307275 1.54534 -0.9745766 0.06130408
-0.9472713 -0.6177556 0.44315058 1.1631382 -0.36206156 -0.50522625 -0.20966 -0.31375074
-0.6506497 -0.17431279 -0.0571651 -0.00240045 0.0317668 0.0149132 0.00274083 0.0293309
-0.0559911 -0.0372058 0.000593005 -0.0200322 -0.00552438 -0.0373491 -0.0228229 -0.0068469
0.00575654 -0.0160478 -0.00335368 0.00735816 -0.0399714 -0.0370127 0.00725845 -0.0114271
0.0113318 -0.0316478 0.0481263 0.0043478 -0.0199183 -0.0218775 0.00940047 0.0146829
0.0217425 -0.0400343 0.0298655 0.0207967 0.0277248 -0.0177117 -0.0226978 0.0385062
-0.000399054 -0.0493169 0.0336159 0.0238694 -0.0200781 -0.0622713 0.036566 -0.0364607
0.00839204 -0.0318456 -0.0163064 0.0313097 0.34007382 -0.23445725 0.005610877 0.6060563
-0.16863452 0.53344536 -1.0280619 -0.59288985 -8.34879 -0.187303 0.64133656 -0.29177535
0.1787481 0.22763897 0.39181343 -0.0197319 -0.362707 0.5429769 -0.65971345 -0.47609416
-1.7314892 -0.20572111 0.0725337 0.4061578 2.44834 0.16934098 -0.00648876 1.2098621
-1.46684 -0.41441652 -0.148992 -1.218489 0.17630224 1.6936704 -0.04423389 0.7227217
0.26526773 1.76788 0.20365627 0.6536155 0.27546307 1.5559083 -0.096820906 0.65215683
0.39370084 1.0516225 -0.268052 0.07287841 -0.43909115 0.1109232 -0.102203704 -2.2319338
-0.0028304055 0.40681937 0.05686813 -0.574081 -1.6035789 0.656075 0.17165607 -0.043058902
0.6412594 -0.13763912 0.23917925 -0.685856 -1.46877 -0.0067245 0.0961549 0.75278926
0.234634 -0.41577062 -0.07077427 0.557016 -0.00752516 0.45008877 -0.137884 -0.3278671
-0.0463129 0.26563188 -0.087293 0.3505654 1.13107 0.079643495 1.1034359 -1.645276
-0.10548306 0.39508978 -0.9074787 0.971516 -0.62805474 0.41585004 -1.00658 0.0224427
0.120935366 -1.5708433 0.07273904 -4.1571217 -0.278786 -0.554989 0.372764 0.8639673
0.0257178 -0.00251073 0.0131237 -0.0588368 -0.0256383 0.0113737 -0.0194607 -0.0395232
-0.0136478 0.0120228 0.00733028 -0.0354091 -0.0286693 -0.0225605 -0.0251281 -0.0193469
0.0179801 -0.0557655 -0.0308471 -0.0295185 -0.00561479 -0.0151892 0.03886 0.0245929
-0.00393572 -0.0197384 -0.0353719 -0.0539453 -0.0393122 0.0404298 -0.0104025 0.0136048
0.0106692 -0.0374466 0.0140103 0.0286358 0.00934426 0.00474055 -0.0355933 0.0271594
-0.0562143 0.0100243 -0.00866443 -0.0538597 -0.0459932 -0.0280462 -0.0156359 -0.0360468
-0.0200711 -0.0529031 0.19102846 0.13403015 0.049510643 0.53431886 -1.1544387 2.01918

MatMul_H1.bias f4 [50]
00000000: c867 d33d 1f36 c7bc 589b b4bf 3a0b 1b3f
00000010: 5e10 91bc 1c6b 2cbf 6b11 f5be 40df 07bf
00000020: ff0c b3be 7fc8 51be 09ab 23bf 4a9f 623d
00000030: 9b95 b7be 0bc1 28bf b6de 29bf 06d5 1fbf
00000040: 7a2c e8bd 60d3 163f 4471 323f fd47 f83e
00000050: 8cd4 d9be 7d33 e1be e9fa a13d a076 41bd
00000060: 082e 40bf 5533 043f e534 cf3e 2b7c 6ebf
00000070: 8ef2 15be 1359 803e db47 083f 8599 42bf
00000080: f157 283f 1650 453f 8cbd 69bf 08b1 983f
00000090: cd53 d73e 7cda a0be 8f8a f73e 7d46 003e
000000a0: 2e75 59bf 5cea debb 5103 22be a4b1 2cbc
000000b0: 0e86 4abf 9a8e 45bd 1a19 44bf 4b69 80bf
000000c0: ebe9 003f 1083 2fbc
0.10322529 -0.0243178 -1.4109907 0.60564005 -0.017708 -0.67350936 -0.4786485 -0.5307503
-0.34970853 -0.2048664 -0.63932854 0.05532769 -0.35856327 -0.6591956 -0.66355455 -0.6243442
-0.11336608 0.5891628 0.6970408 0.48492423 -0.42544973 -0.43984595 0.079091854 -0.04723227
-0.7507024 0.51640826 0.40470043 -0.93158215 -0.14643309 0.25067958 0.5323464 -0.760155
0.6575919 0.77075326 -0.9130485 1.1929026 0.42056122 -0.3141669 0.483479 0.12526889
-0.84944427 -0.00680284 -0.15821578 -0.0105404 -0.791108 -0.0482317 -0.766008 -1.0032133
0.5035693 -0.0107124

MatMul_H2.weight f4 [50, 50]
00000000: 3f27 d5be a2ff f13b fde7 a4bd 7bc5 303e
00000010: 6d9f 9f3c 53e4 3e3f 891c 9a3e d43f 9f3e
00000020: a2a5 273f 031f 273f 1be6 e5be 109f 87be
00000030: c2c0 b3bc f003 b53d f278 cd3d 2d44 fc3e
00000040: ccae 723d b200 423e eed3 29bf 4a37 cf3d
00000050: e0e5 95be 7c7c 8abe bc10 2bbe 47a9 32c0
00000060: 89cd ca3f 945a 093f 2745 993e af13 763d
00000070: 65ab 0abe acd3 a2bd 78c2 ed3d a56b 3ebe
00000080: 2cf4 de3e bf65 97bd e819 a93d c65d c33d
00000090: 5951 3d3d a189 dbbe 333c b1bb 9269 b33e
000000a0: 189d 833e cd61 52bc 8a16 52be d993 c4bb
000000b0: c452 813f a3e7 4e3f 2f8b cbbf fd12 483f
000000c0: 8e3a 3bbf 8a7e 233c c07c 003e 92db 25bd
000000d0: 3952 833e b4aa e5bd 4801 3d3d f2d0 533f
000000e0: d12a c4bf 93ff 293e db13 9abd 9372 a0bf
000000f0: 2afe cfbe 35f3 2fbe ef15 a2bd 9231 90bf
00000100: 78f2 aebe 7497 29be 0819 053f 435f c0bd
00000110: 4099 97be 9597 513e d26f 3f3e 5914 063e
00000120: e6f8 473e 0459 773f 35b7 f6bd ad6e 6cbe
00000130: 3672 323e 0a6e 7fbd cf10 febe 1bee 483c
00000140: 9e2f 563e 27f3 1ebd 30f9 163f acc7 0fbe
00000150: 54ea 57be aa2b cd3e 7312 72bf 2949 e73e
00000160: deb1 d0be 30d9 103f bd20 1ebe 5e36 f03c
00000170: bceb 21bd d2ea fdbb 2b24 9a3d c7a0 333f
00000180: b420 8d3e 57d0 bd3e 49e9 fb3e 6f19 e6bc
00000190: 0b0f ae3d 8b13 04bd 8b66 8dbd 0d19 7f3e
000001a0: 5a23 8c3c 729b fa3d 1782 2e40 ba2b e03c
000001b0: a3b4 013f 935f b23f a987 c83e 6682 01bf
000001c0: 44a5 01bf 8577 c1be 098a 6f3e 9b37 8ebe
000001d0: d6c0 eabd d74e 20bf d777 0cbf 0264 083f
000001e0: 0daa 1d3e 7fe5 2f3e 1bd4 f5be 0003 69bf
000001f0: 7d26 c73f 8b38 3c3e 08e3 073e 317b 303c
00000200: ebf6 a33c 423f 83be d1ef 9bbe 33a4 ab3c
00000210: fabc b2be bf0b c63e d293 873c fd6f 4fbd
00000220: 4e41 de3e a72e a6bd 6fd4 1dbf 5112 d2be
00000230: 8d9c 8f3e 9923 753c 1e19 6bbe 4473 573b
00000240: 8e47 a73f 4302 d63e 64cc f23d 24ca 353f
00000250: 5efb aabd ffba 89bc a071 803e 7792 dfba
00000260: 671c b73d 9be2 013e 6f83 5abc 999d 5d3f
00000270: 92e8 17c0 2924 40be 0bf6 43be 6ff3 d93f
00000280: cf83 fbbf 2097 e33e 8f53 a03f 8948 c73e
00000290: e6cf 3b3f 6b48 06bf 7b25 8c3d 2956 933e
000002a0: bd35 0ebe b4eb b53e 3674 c33e 0440 103f
000002b0: 61b2 153f 13ef 8dbf 47d3 0d3d 5cd1 d6bd
000002c0: 2843 39bf 4b0b 40bf 3190 e4bf 2840 7a3f
000002d0: dfcf 63be aafa 22bf b460 55bf b183 523e
000002e0: e757 34be 026f f7be 2303 52bf 3a01 0f3e
000002f0: 01e4 6ebf acf5 e83e 48f4 873d a0f7 eb3c
00000300: 2993 55be 20ab e53c fe9a 0cbe 7444 363f
00000310: 638b 93bd 536e 7d3e fc4d adbe 07c9 47bd
00000320: dd28 0e3f 192c cbbc 6bce 0ac0 944b 1fbc
00000330: 0a3c e63b caa7 123d 1ac2 893e 2042 b0be
00000340: 43a4 74bf a4eb 99bf e1d6 94bf 6157 08be
00000350: 5ab8 2c3e 5026 3bbf 6e34 903e ec02 c43d
00000360: 2254 8dbf 5049 1b3f b9d6 b73e 02e8 bebe
00000370: 82e5 083e fe58 2e3f 91c0 76bd 2905 b0c0
00000380: d6b4 863e adfd 46bd 95e3 90bf 529b c0bd
00000390: 16fd 303f 11de c53f 5cde 81bf 474a dcbe
000003a0: 8363 943f bf91 2a3f 2d38 f33e 1da3 e1be
000003b0: 89e2 f03e 001a 6fbf 12e4 8b3f 9cc5 8ac0
000003c0: 6982 38bf bb10 263d 6dcb ee3f e0c9 1d3d
000003d0: e291 1cbf 9198 90be cfd4 04bf 4372 2ebf
000003e0: d8ff b63e 33d6 c8bb 62ba 8c3d 6111 283d
000003f0: bd2f cd3d ec64 7d3e d791 fa3b 6ea2 df3e
-0.41631505 0.00738521 -0.08052061 0.17262833 0.0194852 0.74567145 0.30099896 0.31103384
0.6548711 0.65281695 -0.4490212 -0.26488543 -0.0219425 0.08838642 0.10032834 0.49270764
0.05924873 0.18945578 -0.66339004 0.101179674 -0.29276943 -0.270481 -0.16705602 -2.7915819
1.5843974 0.53653836 0.29935572 0.060077365 -0.13541944 -0.079505295 0.116093576 -0.1859575
0.43545663 -0.073924534 0.08256894 0.0953937 0.046220157 -0.4287844 -0.0054087876 0.3504148
0.2570579 -0.0128407 -0.2051641 -0.00599907 1.0103383 0.808222 -1.590185 0.78153974
-0.7313622 0.0099789 0.12547588 -0.0404926 0.25648668 -0.112142 0.0461438 0.827407
-1.5325567 0.166014 -0.075233184 -1.2534965 -0.406236 -0.1718262 -0.0791434 -1.1265128
-0.34169364 -0.16561681 0.5199132 -0.0939317 -0.29609108 0.2046798 0.18695 0.130937
0.19528541 0.966202 -0.12046663 -0.23089094 0.1742638 -0.0623608 -0.496222 0.0122638
0.20916602 -0.038806107 0.5897398 -0.14041013 -0.21085483 0.40072376 -0.945594 0.45173004
-0.40760702 0.565814 -0.15442176 0.0293228 -0.039531454 -0.00774894 0.0752643 0.701672
0.27564013 0.37073013 0.4920142 -0.0280883 0.08498963 -0.0322452 -0.06904324 0.249119
0.0171067 0.1223668 2.72669 0.0273646 0.50666255 1.3935417 0.39166 -0.505896
-0.506428 -0.377865 0.233925 -0.277768 -0.11462562 -0.626203 -0.5487036 0.532776
0.153969 0.1717739 -0.48013386 -0.910202 1.5558621 0.18380944 0.132702 0.010771559
0.0200152 -0.256342 -0.30456403 0.02095232 -0.34909803 0.38680837 0.016549978 -0.05064391
0.434092 -0.08114367 -0.6165227 -0.410296 0.28049126 0.0149621 -0.229588 0.00328751
1.3068712 0.417986 0.11855391 0.7101157 -0.08348726 -0.0168128 0.2508669 -0.00170572
0.08940964 0.126841 -0.013337 0.865686 -2.37357 -0.18763794 -0.19136827 1.7027415
-1.96496 0.44451237 1.25255 0.38922527 0.733641 -0.5245425 0.06843086 0.28776672
-0.13887687 0.3553139 0.381746 0.5634768 0.5847531 -1.1088585 0.034625318 -0.10489151
-0.723681 -0.7501723 -1.7856504 0.97754145 -0.22247265 -0.63663733 -0.8335068 0.20558049
-0.17611657 -0.4832688 -0.82036036 0.13965312 -0.93316656 0.45499933 0.0663839 0.0288046
-0.20856918 0.0280357 -0.13731 0.711982 -0.0720432 0.24749117 -0.3384856 -0.0487757
0.555311 -0.0248013 -2.1688488 -0.009722609 0.0070262 0.035804547 0.269059 -0.3442545
-0.95563143 -1.2025037 -1.1628076 -0.13314582 0.168672 -0.73105335 0.28165 0.0957087
-1.10413 0.6065874 0.35906008 -0.37286383 0.133688 0.6810454 -0.06024224 -5.50063
0.26309842 -0.048581768 -1.1319453 -0.09404625 0.6913618 1.5458394 -1.0145984 -0.4302542
1.1592869 0.6662864 0.47503796 -0.44069758 0.47047833 -0.9339905 1.0928977 -4.336622
-0.7207399 0.0405433 1.8655831 0.0385226 -0.611601 -0.282414 -0.5188722 -0.681431
0.35742068 -0.00612905 0.06871487 0.0410322 0.10018871 0.2474553 0.00764678 0.43678612

MatMul_H2.bias f4 [50]
00000000: 0c2f 99bf ce45 bfbe 1137 97bf dec4 bf3e
00000010: 7ba0 84bf 20ea 1fbe 644c a5be 7e3a 82bf
00000020: 9a8d 6a3e 98f1 1fbf 7ae8 8cbf 22d1 893f
00000030: 6990 f0bd 3fdf 0f3e cb14 73bc 57be 0b3e
00000040: 21b8 88bf 8404 56bc 7b0e 17bf 82e7 f4be
00000050: b518 c8be 13ab 50bc a77d 89bf 8899 3abe
00000060: 4d18 6c3f 9574 0abf 9cef 20bf 02cc 323f
00000070: a435 88be f586 be3f b82e 8d3d b4e4 cdbe
00000080: 11b3 f5be 0c3f aabf 3b44 c73e 61e8 d6be
00000090: ee2a c63e 9edb 86bf baaf a1bf b3d3 773f
000000a0: 35dc bdbe e9da b1be 760d c7be c2c0 bbbf
000000b0: c5c3 4d3f 5b41 f3be 5bde 093f d337 0f40
000000c0: 1c8a 983f b5b4 943e
-1.1967483 -0.37357944 -1.181368 0.37454885 -1.0361475 -0.15616655 -0.32284844 -1.01741
0.22905579 -0.6247802 -1.1008446 1.0766947 -0.11746294 0.14050005 -0.0148365 0.13646828
-1.0681192 -0.0130626 -0.5900647 -0.47832876 -0.3908135 -0.0127361 -1.0741471 -0.1822263
0.9222458 -0.5408414 -0.62865615 0.6984254 -0.26603425 1.4884936 0.068936765 -0.4021355
-0.4798818 -1.330049 0.38919243 -0.41974166 0.38704628 -1.0535772 -1.2631752 0.968074
-0.37082067 -0.34737328 -0.38877457 -1.46682 0.80376846 -0.475108 0.5385491 2.2377822
1.1917148 0.2904412

MatMul_H3.weight f4 [50, 50]
00000000: f872 bdbd 302a bbc0 4df3 1240 97ff a83f
00000010: 0bba 213f cc45 203d 81c6 93bf 897b acbf
00000020: 373f 70bf e9e1 40bf 95bb 6fbf ca36 453e
00000030: 61ce f1bf f417 72bf 5034 343c e143 f3bf
00000040: b974 15c0 b41a 173d 5019 13c0 0297 e1bf
00000050: 541d 16bf 5682 c53c 91d2 9cbf 7662 01bf
00000060: 78e5 1f3d 871c 903e 6132 91bf f314 203f
00000070: 228d 06bd 16b0 03bf b0e1 40bf e44e 85bf
00000080: 3d69 fe3e b2fe 22c0 3c30 103f bf7d 9f3f
00000090: 7d94 2f3f 69a0 c6c0 118c b4be ef3c c13e
000000a0: 2b55 dfba db16 e5bf b0f5 e1bf 3d7e 9f3f
000000b0: b24f 1ac0 c669 24bf 56fa b5bf 5977 a03f
000000c0: 0dcc b63f cfda aa3e d7f3 1e3f dd1d 05bd
000000d0: 5070 11bf 0a71 a03d fffc 68bd 0d56 ed3d
000000e0: 7862 b9bd 41d6 103d bd2f c3be 054d 183f
000000f0: 9a38 283e 47f6 d7be 760f 613e 43d7 48be
00000100: 520f d1bc 9a47 cdbe 045c 8dbc 0aa2 aebc
00000110: c79b 7ebd 62ac 543e eaca 4bbe 6d05 873b
00000120: c7e8 79be 2430 1c3e f3b4 3b3e 14a2 6ebe
00000130: 4c57 7fbb 1d30 2e3d 00f2 f03b 7738 94be
00000140: 226b 983e 5c66 c3be e2ef 12be 0bc6 4ebf
00000150: a5f7 7cbe 1b87 073f 5d7b 063c 26f9 92bf
00000160: 3059 d63e 9627 30be 1f62 c0be 9763 b2be
00000170: feb4 e5be 80ee 4b3e 6ce5 e63e dca1 413f
00000180: e881 803d 814f 94be c07d 0c3e 3879 5f3e
00000190: a089 2e3f bb27 01c0 9b38 993f 3b73 063f
000001a0: 8544 6b3b 0573 03be 4416 fdbd aac7 733e
000001b0: dfe8 bdbd 1d3f 403e bbf2 b93e 8cb5 6abe
000001c0: e202 4dbd af6e f53d 01cc 2b3d 5de1 843e
000001d0: cc72 8b3e 6bd5 0e3d e318 833d 04e6 893e
000001e0: 9f98 c53b 5ea8 32bc d81d 21bf 58ef 773e
000001f0: d013 17bd 394e 303e e49a 85bd 8ef7 94be
00000200: c82c 423e d4d3 f63d 8f54 853e e867 92be
00000210: b379 a53e 3224 e83e c860 9b3e 5fc4 bd3e
00000220: a3e9 b6be 7235 eebe ad99 1f3d 7e22 10be
00000230: c0b1 4cbe 5b08 22be 3705 82be 6479 173e
00000240: a038 de3e 992e bcbe 391a 82be 5bae ac3d
00000250: ff0b 923d 4ad3 9f3e 451c 0cc0 eab0 713f
00000260: 7e8c a93e 88c1 c5be e4d7 5f3e 42af c23e
00000270: a0a6 70c0 6397 34bf 20b5 61c0 9e2c e63c
00000280: db32 18bf f7e4 7cbc 95b4 473e f4fb 3ebe
00000290: 1fbc f6bc de7e 1cbf 07eb 523f 488a 483c
000002a0: 5c3d e13f d01f 843d b5a8 5dbe 31e8 a9bc
000002b0: 610a 883f 679f 993f da48 f7bf 2161 f13e
000002c0: 16e1 33bf 75cf 01bf 197d 82bf 94a9 aabf
000002d0: 4cf3 8fbf 9ce1 be3f f34e a93e f1f2 943e
000002e0: d39a 39bf 04e2 0fc0 aefc 87bd 7526 413f
000002f0: ee49 83bf a5ba 90bd 10b0 5abf 9a49 643f
00000300: 64d8 233f 5989 19be 4ed0 803e 5cb5 a1bd
00000310: 7300 183f 213a 2c3f be93 0bbf ea29 8e3e
00000320: 2b1c 393f 5694 5abe afb1 1fbf 89aa bc3e
00000330: c094 41be 2889 ed3e 79eb 92bf 96d5 523e
00000340: 7840 92bf 88f9 193f 1699 01bf feb5 48bf
00000350: 581e 15c0 d6c9 79be 7c8f c43c 95b4 0f3f
00000360: 5867 a73e f8d2 053d 15c4 e0be 8f3c 5bc0
00000370: 0c19 c3bd 92af 243d e406 f1be 0999 aabe
00000380: 05e3 38bd 92bf 693f 2c59 f9be 66a3 dfbd
00000390: 8066 ddbd 9bb7 0c3d 752c aabe 38dc 573e
000003a0: 731b 2a3e f645 063f 96d3 2d3f 8e7f 8c3e
000003b0: 1cf1 b33e 9ac1 f63e e417 803e 04c7 aabe
000003c0: d8a4 d3be 05d9 1fbd dd95 e1be 4434 dabd
000003d0: caa3 eb3d d713 8d3e 3941 d1bc e019 babe
000003e0: 0d41 4b3d 4af4 39be 1b73 f6be 49ac 563e
000003f0: 4914 8e3e 7db7 b5be 02c8 8bbd 36cb e7bc
-0.09250444 -5.8489 2.2961 1.3203 0.63174504 0.039129063 -1.1544954 -1.34752
-0.9384646 -0.7534471 -0.936456 0.19259182 -1.8891107 -0.945678 0.0109988 -1.900509
-2.3352492 0.0368907 -2.29842 -1.7624209 -0.586385 0.02411 -1.225176 -0.50540864
0.039037198 0.28146765 -1.13435 0.62531966 -0.03284944 -0.5144056 -0.7534437 -1.04147
0.49689665 -2.5467954 0.563236 1.246025 0.6858595 -6.2070813 -0.35263112 0.377418
-0.0017038932 -1.78976 -1.7653103 1.24604 -2.4111142 -0.642239 -1.4217021 1.2536422
1.4281021 0.33370063 0.6209082 -0.032499183 -0.56812 0.078340605 -0.0568819 0.115886785
-0.090519845 0.03536058 -0.3812236 0.5949252 0.16427842 -0.42180082 0.21978554 -0.19613366
-0.02552 -0.4009369 -0.01725579 -0.0213175 -0.06216028 0.20768884 -0.19901624 0.00412052
-0.24405204 0.15252739 0.18330745 -0.23304015 -0.0038961945 0.042526353 0.0073530674 -0.2894933
0.29769236 -0.38164032 -0.1434932 -0.8077094 -0.24703844 0.5294053 0.008208123 -1.1482284
0.4186492 -0.17202601 -0.3757486 -0.34841606 -0.4486465 0.199152 0.4509691 0.756376
0.06274778 -0.28966907 0.13719845 0.21823585 0.6817875 -2.01805 1.19704 0.5251958
0.0035898995 -0.12836845 -0.123577625 0.23806635 -0.09272932 0.18774076 0.36318 -0.22920817
-0.050051577 0.11984002 0.0419426 0.2595319 0.2723602 0.0348715 0.06401231 0.269333
0.0060301567 -0.0109044 -0.6293616 0.24212396 -0.03688413 0.1721734 -0.06523684 -0.2909512
0.18962395 0.12052122 0.26041076 -0.285949 0.32319412 0.45340115 0.30347276 0.37063882
-0.35725126 -0.4652515 0.038964916 -0.14075658 -0.19989681 -0.158235 -0.25394604 0.147924
0.43402576 -0.367543 -0.2541063 0.08431693 0.07131194 0.31215888 -2.1892254 0.94410574
0.33115 -0.38624215 0.218597 0.38024336 -3.76017 -0.705435 -3.52668 0.028097447
-0.594526 -0.015435449 0.1950248 -0.186508 -0.030119 -0.61131084 0.82389873 0.01224
1.759685 0.0645138 -0.21646388 -0.0207406 1.0628167 1.2001771 -1.9319108 0.47144416
-0.7026533 -0.5070718 -1.0194427 -1.3333001 -1.1246123 1.49126 0.33068046 0.290916
-0.7250187 -2.24817 -0.06639992 0.75449306 -1.0256937 -0.070668496 -0.854249 0.8917481
0.6400206 -0.149938 0.25158924 -0.0789592 0.59375685 0.672762 -0.5452231 0.27766353
0.72308606 -0.21345648 -0.623805 0.36848858 -0.189044 0.46393704 -1.147811 0.20589289
-1.1425924 0.6014638 -0.50624216 -0.784027 -2.329977 -0.243934 0.0239942 0.5613492
0.32696033 0.0326719 -0.438996 -3.4255712 -0.09526262 0.0402065 -0.4707557 -0.33319882
-0.045138378 0.9130794 -0.48700845 -0.10919838 -0.10810566 0.034354787 -0.33237043 0.210801
0.16612034 0.524505 0.6790098 0.27441067 0.3514489 0.4819458 0.25018227 -0.33354962
-0.41336703 -0.039025325 -0.4405965 -0.106545 0.1150585 0.275542 -0.025543796 -0.36347866
0.049622584 -0.18159595 -0.48134694 0.20964159 0.2774985 -0.35491553 -0.06825258 -0.02829514

MatMul_H3.bias f4 [50]
00000000: b6b6 f7be 4f43 463f b96c 9cbf c3c7 143f
00000010: 9cf7 c73e d349 2c3f 5c8a 373f 4642 823f
00000020: 7cb4 2abf eec1 1dbf fd3e 13be a58b a33e
00000030: cb87 0c3f dca8 8f3e 0510 263f 1d67 a43e
00000040: 8bce 0fbe 2511 373f 7d1d f23d 53a6 063f
00000050: e0d4 333c a4db dabf c71a da3e 2db2 c1bf
00000060: ab6e 62bf 4895 31bf ed67 90bf 147f df3e
00000070: 8384 b13f 6d9d d33e e096 eabe 2964 1a3e
00000080: 6cd9 acbe a92e 27be d238 1b3e c93a 743f
00000090: 0657 bb3c a292 113f 5739 99bc 2ecd c0be
000000a0: f667 82be 5ba2 543f 5f79 ddbe 93e1 993d
000000b0: ac15 433e e634 90bd 6cd6 283f d60c 1fc0
000000c0: e160 9f3d 8432 21bf
-0.48381585 0.77446455 -1.222068 0.5811731 0.39056098 0.67300147 0.71695495 1.0176475
-0.6668165 -0.6162404 -0.14379497 0.31942478 0.54894704 0.28058517 0.64868194 0.3210992
-0.14043634 0.71510535 0.11822031 0.5259754 0.010976046 -1.7098279 0.42598554 -1.51325
-0.88450116 -0.6936841 -1.1281716 0.4365164 1.3868564 0.41331044 -0.45818233 0.1507727
-0.3375963 -0.16326393 0.15158394 0.954022 0.022868644 0.5686437 -0.0187041 -0.3765654
-0.2546994 0.83060235 -0.4325666 0.07513728 0.19051236 -0.070413396 0.6595218 -2.4851584
0.0778215 -0.62967706

MatMul_H4.weight f4 [50, 50]
00000000: 2607 2b3e ee37 f0be 614f 833e c59e 893e
00000010: 96dd cebf ae29 5ebd 2aca 60bd cf37 663b
00000020: 2783 e7bf d2bd ecbe 588d 723d eec8 2abf
00000030: 6797 2f3d 4bb9 71bf 7f08 ddbe f17d 24bf
00000040: 8f63 0f3f 8df8 cb3b 5863 4a3f 4120 2f3f
00000050: d770 623e c66b a4bd 232f 3abc 8273 a6bf
00000060: 1da7 193e 1f93 bfbf 2dcf d63e 0e2a 40be
00000070: aa1f 38be 3595 00c0 c5b5 08bf 5855 64be
00000080: ccee 383e d2b3 403e 9bc8 14bf cd36 453a
00000090: e9cd d9bf 6459 b33d 61a6 4d3e 69c8 6ebe
000000a0: 3486 5ac0 1ed8 babe e3b5 0f3e 4fe0 8ebf
000000b0: dc5e 7e3e f9d9 3dbe 55a0 03be 6613 e4be
000000c0: 1ffd e13e 8ca4 193f c864 003e 19ae 1c3f
000000d0: f2ce 89bf 086e 9ebd b1e0 e6be f9a9 9fbe
000000e0: b73a 043c 14ae fa3e 0b2d 7a3d 3f79 4d3e
000000f0: 80af f83e 0286 a2be 04b1 83bc 98e7 ca3c
00000100: 3bc8 c83e 61ef 9bbd e1e1 b73e 808a a63e
00000110: 8324 11bd 6cd1 a33e f5bb 9bbd a5f8 8b3e
00000120: e9f7 97bd 0555 1ebd b402 813e 7e21 19be
00000130: 70cb c1be c9cb 7ebf 4b8a 103d 9c52 4ebe
00000140: 01ed 39be 6034 47bf 1e70 f0bd d4b8 61bf
00000150: 967b 21be d420 84be 0de1 88be 418d e0be
00000160: d6c5 2d3e 5638 0bbf 7d82 323e 42dc 6d3e
00000170: 07fc 28be 5112 88be 234e acbc 2542 05bd
00000180: e5ed ac3d a08b 473f df1b a0be 83e2 5abc
00000190: b3a0 0bbd 99da ed3c eb03 e63b 4c4b 31bd
000001a0: 2254 c63b 969d 34bc c8e8 05bd e4c2 5c3c
000001b0: 9170 adba bbb2 30bd 9f70 1b3c cf3a d73b
000001c0: 1ebc db3c 46cc 11bd 06a8 a1bb eca4 1ebd
000001d0: bf8e 493c abdf 96bc fd1d 80bc b694 5dbd
000001e0: d7ca 993b 6388 b53b 392a 373c 965d 10bd
000001f0: 37dc 6cbc 4e0e ba3c bf28 01bd 9c50 083d
00000200: 257a d73b 1aec 5cbd ce07 8f39 3ec9 c23c
00000210: 8f36 0c3c 5b22 d73c 7743 ff3c 29e1 ee3c
00000220: 1456 91bb 8de0 353c a6de cbbb e53e 9cbb
00000230: 574b f0bc 25fe cdbc 4bdb 89bd 3374 87bc
00000240: e7ce 023c 28c8 19bd 8873 83bc e031 973c
00000250: 90bf 34bd ef97 0abd 3112 34be 9d0b 4b3f
00000260: 9cb3 ffbe 9962 9ebe cca6 99be 2437 3ebe
00000270: b085 a5bd ba49 343d e852 93bd bac0 ae3e
00000280: 6b0d ef3e b2f2 623e 35af 3b3c 5cfd 25be
00000290: b704 1c3e 497a bd3c d8aa 91bd b29c 403f
000002a0: 2f24 1bbe 1181 403e 8c1e a43e ace1 ddbc
000002b0: 8ed8 333e 52d1 58bd 9fc7 7cbd 8868 4f3f
000002c0: 0965 02bf 1aa3 edbe 96d9 843e 64e2 96be
000002d0: 3770 1cbe 6c90 b53e 6243 ab3e efc6 3a3f
000002e0: 3736 07bf eef0 863e 1b6f 043d 14f3 52be
000002f0: 4411 573d 034e 923e 2d43 93be 6f28 96bd
00000300: fc29 35bf bb53 9ebe fdda 283d 77ce 49be
00000310: 548c 9f3f e591 0dbf 56df c2bd 2c7d febe
00000320: 7f06 063c c8b1 153d 5888 b3bc 9c9d 56bd
00000330: 5ace ef3c 1904 56bd df9d e1bc f8c8 21bd
00000340: 1075 1f3c 0d87 203a b59e 06bd 4d59 fc3c
00000350: 5137 cc3b c23a 443c a786 273d e498 f6bc
00000360: 7c87 36bd 321d fabc b63e 8939 0c7b 35bd
00000370: e896 27bd 1b0d 20bd 266e 95bc 2860 20bd
00000380: dde5 873c 3e22 a6bc e7c0 19bc a239 1b3c
00000390: 09fc 1f3b 1344 e1bb 99d7 913c 055b 5b3c
000003a0: 2fb6 9abc cceb ad3c bc65 3d3d 57ce 1ebd
000003b0: 5848 6abd 8637 abbc e0d0 04bb ae21 02bd
000003c0: 53fe 5abc b838 0f3d a0d1 2cbd 8dea 993c
000003d0: 4a22 a0bc ce3d bf3c e5b5 d2bc a3d6 4abd
000003e0: 6c70 6c3c 9ffe 183d a820 8abd 9b7d a63d
000003f0: 051c bb3e d752 bdbd 74fa c0be d20b 833e
0.16701946 -0.4691767 0.256465 0.26878944 -1.6161373 -0.054238968 -0.0548803 0.003512848
-1.80869 -0.4623857 0.059216827 -0.66712844 0.042868998 -0.9442336 -0.43170545 -0.6425467
0.5601129 0.006224698 0.79057837 0.6840859 0.22113357 -0.08028369 -0.011363777 -1.3004
0.15005155 -1.4966773 0.41954938 -0.18766043 -0.17980829 -2.0091069 -0.5340236 -0.22298181
0.18059844 0.18818596 -0.581186 0.00075231196 -1.7015964 0.08757284 0.20083 -0.23318638
-3.414441 -0.3649301 0.14034228 -1.1162204 0.24840873 -0.18540181 -0.1285413 -0.4454605
0.4413843 0.60016704 0.12538445 0.6120315 -1.076628 -0.077358305 -0.450933 -0.31184366
0.008070639 0.48960936 0.061078113 0.20065783 0.48571396 -0.31742865 -0.016075619 0.024768636
0.39215264 -0.07614017 0.3591452 0.32527542 -0.03543521 0.31995714 -0.07604209 0.27338138
-0.07420332 -0.0386553 0.25197375 -0.14954183 -0.37850523 -0.995297 0.035288136 -0.201487
-0.18156816 -0.7781429 -0.11740135 -0.8817265 -0.157698 -0.25806296 -0.267342 -0.43857768
0.1697 -0.54382837 0.1743259 0.23228553 -0.16502391 -0.26576474 -0.021033352 -0.032533783
0.08443812 0.77947426 -0.31271264 -0.013359669 -0.0340888 0.0290349 0.00701951 -0.0432847
0.00605251 -0.0110239 -0.0326927 0.0134742 -0.00132324 -0.0431392 0.0094873 0.00656829
0.0268231 -0.0355952 -0.00493336 -0.0387315 0.0123021 -0.0184172 -0.0156393 -0.0540969
0.00469337 0.00553994 0.0111795 -0.0352455 -0.0144568 0.0227119 -0.031533 0.03328
0.00657584 -0.0539361 0.000272809 0.0237776 0.00855793 0.0262615 0.0311601 0.0291601
-0.00443531 0.0111009 -0.00622161 -0.00476824 -0.0293328 -0.0251456 -0.0673128 -0.0165349
0.0079839 -0.0375444 -0.0160463 0.0184564 -0.044128 -0.0338363 -0.17585064 0.79314595
-0.4994172 -0.309346 -0.30010068 -0.18575722 -0.080821395 0.044015624 -0.071935475 0.34131414
0.46689925 0.22162893 0.011455347 -0.1620993 0.15236174 0.0231296 -0.07112664 0.752391
-0.15150522 0.18799235 0.32054555 -0.027085148 0.17563078 -0.052934 -0.06171381 0.8101888
-0.5093542 -0.464135 0.25947255 -0.29469597 -0.15277182 0.35461748 0.33449847 0.729598
-0.528171 0.2635569 0.03233252 -0.2060054 0.0525067 0.28575143 -0.2876219 -0.07331931
-0.7076719 -0.30923256 0.04122447 -0.19707666 1.24647 -0.5530074 -0.09515254 -0.49704874
0.00818026 0.0365465 -0.0219156 -0.0523964 0.0292732 -0.05225 -0.0275411 -0.0394983
0.0097325 0.000612364 -0.0328662 0.0308043 0.00623218 0.0119769 0.0408999 -0.0301022
-0.0445628 -0.0305315 0.000261774 -0.0443068 -0.0409154 -0.039075 -0.018241 -0.0391542
0.0165891 -0.02028 -0.00938437 0.00947419 0.00244117 -0.00687457 0.017803 0.0133884
-0.0188857 0.0212306 0.0462396 -0.038771 -0.0571979 -0.0209005 -0.00202661 -0.0317704
-0.0133663 0.0349662 -0.0421921 0.0187886 -0.0195476 0.0233449 -0.0257215 -0.0495211
0.0144311 0.0373522 -0.0674451 0.08129426 0.36544815 -0.09244316 -0.3769108 0.25594956

MatMul_H4.bias f4 [50]
00000000: 3868 d33f 9443 40be 489b 14bd 2efd bbbf
00000010: f930 7bbc faa1 6a3f b3f7 c5bf 99bb 89bf
00000020: 26e8 473f c52e df3e 9bd1 fa3e 781c 953f
00000030: f4bd cfbf 27f3 56bd 1e19 533f a6b8 fabe
00000040: 4282 0abf 82fc 233f 0dbb 2d3f c78f 8fbf
00000050: 8c22 203f 8413 063f 00b5 0f3f 87f2 a1be
00000060: bd44 34bf 6c94 a7bd 7f1a 92bc 6ad6 9d3f
00000070: 4285 fa3d 4f61 a5be 5eb7 023f fec6 9d3e
00000080: 4290 35bf 35fa 493f 414a 07bd c88f acbf
00000090: 5099 9b3e c5bb 0f3e ed7b d13e 6366 08be
000000a0: 47a7 cabe 7797 0fbf 64cc b73e f929 1c3e
000000b0: f9df fd3e 25ee 40bf 8a73 103f 3ce1 8a3f
000000c0: 4cc8 56bf cb8e 03bd
1.651618 -0.18775779 -0.0362809 -1.4686639 -0.0153315 0.91653407 -1.5466217 -1.0760375
0.78088605 0.4359037 0.4898804 1.1649313 -1.6229844 -0.052477982 0.824602 -0.48969
-0.5410501 0.6405717 0.6786354 -1.1215752 0.62552714 0.5237353 0.5613556 -0.31630346
-0.70417386 -0.08182606 -0.0178349 1.2331059 0.12232448 -0.32300803 0.51061046 0.30815881
-0.70923245 0.7889741 -0.0330298 -1.3481379 0.30390406 0.14036472 0.4091486 -0.13320307
-0.39580747 -0.5609049 0.35898125 0.15250386 0.4958494 -0.7536338 0.564263 1.0849986
-0.8389938 -0.0321186

MatMul_H5.weight f4 [50, 50]
00000000: adc7 c83d bde4 2fbe fffd 733c 0c74 7d3e
00000010: c0f3 81bc 5b79 a13e f0f9 053f f3e4 b2be
00000020: 18ee fcbd 3434 f93c e546 21be c570 553e
00000030: 8d27 cabe 3d9c 103e f52a babe 0e16 4e3e
00000040: 6345 edbd 9f93 febd 7028 d4be c16f b33e
00000050: b725 72bd 7ad3 c3bd 2bc2 bdbd cccf ed3d
00000060: 9acc a83e f78e 8abe f692 ebbc ab05 763d
00000070: f80a a1bd dbc4 ccc0 f0d5 a33d 6539 b1be
00000080: b24c 0fbe 077e 8cbe 4652 1cbd cdc8 033b
00000090: 1006 8ebd 6adf 6cbe 9e79 a9be 66dd 2f3e
000000a0: c26b 873d 3bc2 09be 46cd 7cbc e9f0 d8be
000000b0: 8528 3f3e 486d 463f b760 393e deaf 323e
000000c0: 08e9 593e 7fb3 1ebd c184 b7be cd21 093d
000000d0: b711 0a3d 4ca8 0e3e 075a 46bd 382e 863d
000000e0: da5b 753e d145 863e 102f e13d c42e 303e
000000f0: e06b 88be 0d24 3a3e 3b6b 203c 308c 9fbe
00000100: 57e7 893d 52d5 d4bf 911b 58be e7de 1c3e
00000110: 8071 063d a1a2 de3e 43cc d0be 1e34 95be
00000120: 51e5 9abe 8da5 36bf b81f 1c3d b470 91bd
00000130: f0ce 903c 0cfd b73c 1f71 bb3c 245e dd3e
00000140: 440e 0bbd b669 4d3d 2342 8e3d c745 a53d
00000150: 1da2 9bbc 6290 78be 0cf0 a5bd 9e3b cb3d
00000160: 654c 7cbc 8853 60be 0135 003e 42de 06be
00000170: e62f a03d 9328 81be dc26 563f 0a70 54bd
00000180: 383d c13c 0760 d73e da7e 973d 65e6 9d3c
00000190: 1958 fabd 0847 d9bd 23b4 51ba 6161 5e3d
000001a0: 458e 033d 5550 fd3e 049c 45bf 4161 35be
000001b0: 90e3 343a c9d4 0fbe 2b88 913c 4973 693d
000001c0: dee9 dbbd 1693 d8bd 4892 363e 98de 1e3d
000001d0: d2cc 343e 1983 af3e 6b37 863e bf50 ddbd
000001e0: 34d2 903d 1da5 92bd 4e26 7a3d c04f e03d
000001f0: 5ac2 ad3e 2bb5 613d ad02 4b3d 3951 84bd
00000200: 25c5 a83c b930 ec3d 3889 4ebe 528a d9bc
00000210: e1f0 f73d 4dce 2f3e 34db 303d 15bb 093e
00000220: bf20 9fbe aa80 38be fbb9 1fbe 06fd c0be
00000230: ae97 0f3e defb b33d 53d4 5d3e 0558 203e
00000240: 5a64 273d b15e 86bd f3ef 08bd fa3b ff3c
00000250: 044b 2f3e e377 4e3d 93ff cbbd 3c3f f4bd
00000260: 464b 143c 149a 0ebd 310c b33c ec85 b93e
00000270: a9fa 4fbf 2a5f b33e 88be 85bc d754 05be
00000280: 3a5e e4bc c3b0 093d 094c 0cbe af0e 4ebd
00000290: 2d56 053e 86c9 d43d 06fe 0b3e 9220 593e
000002a0: 8e54 2c3e 228c ffbd 371a 1c3d 8123 a2bd
000002b0: db5a 7d3c c9c3 d53d 4c8d 843e 9bcd f03c
000002c0: 453b 383c 80d3 b6bd 9a1e 9bbc c975 3a3d
000002d0: dad5 44be e0de 88bd 3ecc 863d 3647 d53d
000002e0: 19a7 063d 5438 1cbc 9d3e 78be 155e 24be
000002f0: aed1 0abe 229c 95be ab33 df3c 85fd 353d
00000300: 4478 233e d8e1 d93d 1c9a bcbd 3b57 8ebd
00000310: 0441 90bd 80d2 51bd dcf9 ce3d 66f7 df39
00000320: 1a3c d93e 01df d83e 0bc5 e73c bb71 babe
00000330: 0d67 23bd a760 13bd 2acf 09bf 6dea ccbc
00000340: 7556 89be e576 703e 268c 993d 17da b23c
00000350: a65e d3bd d530 ed3e f23a adbe 5c59 32bf
00000360: 1bd1 6cbe e1b7 98be fbb2 4c3e cc59 133f
00000370: 5b9a 10bf dfc7 babe 763e 563c d472 26bf
00000380: d0bd 643d 7325 2dbf 810f f9bc 1ede 2a3e
00000390: 1554 64be d177 003e 747e d73e 3193 993e
000003a0: 1676 113e 098f 3d3f ecf2 92bc bbee 403f
000003b0: 79cf 77bd 2901 c1bd cbc0 ca3d f3be dcbc
000003c0: 86a1 0d3e 5729 efbe bc29 28be f404 383e
000003d0: b31f 74be 7ddc 6f3e c2a8 2bbd 8ff5 823f
000003e0: b389 473e d544 fa3c b06c 33c0 17cb 82bf
000003f0: c320 1abd ab22 2240 9c86 4dbc 6a44 1440
0.0980371 -0.171771 0.0148921 0.247513 -0.0158633 0.315379 0.523345 -0.349403
-0.123501 0.0304204 -0.157497 0.208438 -0.394833 0.141221 -0.363609 0.201256
-0.115855 -0.124305 -0.414371 0.350462 -0.059118 -0.0956182 -0.0926555 0.116119
0.329686 -0.270622 -0.0287566 0.060064 -0.0786342 -6.39903 0.0799979 -0.346141
-0.139941 -0.274399 -0.0381644 0.00201087 -0.0693475 -0.231321 -0.331006 0.171743
0.0661235 -0.13453 -0.0154298 -0.423713 0.186678 0.775105 0.181033 0.174499
0.212803 -0.0387454 -0.3584347 0.0334795 0.0337083 0.13931388 -0.0484257 0.06551784
0.2396082 0.2622514 0.109953046 0.1720534 -0.26644802 0.18177815 0.009791191 -0.31161642
0.06733578 -1.66276 -0.21104266 0.15319405 0.032823086 0.4348345 -0.4078084 -0.29141325
-0.3025308 -0.7134636 0.038116187 -0.071015745 0.0176768 0.02245953 0.022881089 0.43235886
-0.03394915 0.050149642 0.06946208 0.080699496 -0.0189982 -0.24273828 -0.08102426 0.099234805
-0.015399073 -0.21906865 0.1252022 -0.13170722 0.07821636 -0.25226268 0.83653045 -0.05186466
0.023588762 0.4206545 0.07397242 0.0192749 -0.122238345 -0.10609251 -0.000799956 0.054292087
0.0321181 0.4947535 -0.77191186 -0.1771288 0.00069003645 -0.14046015 0.017765125 0.05699471
-0.10737966 -0.105749294 0.1782924 0.0387865 0.17656258 0.34279707 0.26214156 -0.10806417
0.07071343 -0.07160399 0.061071686 0.10952711 0.3393734 0.055104416 0.0495631 -0.064608045
0.020601818 0.115327306 -0.20169532 -0.026555214 0.12106491 0.17168541 0.0431778 0.13450272
-0.3107967 -0.18017831 -0.1559829 -0.37693042 0.14022705 0.08788274 0.21663027 0.15658577
0.040867187 -0.0656103 -0.03343196 0.031156529 0.1711846 0.0504073 -0.09960856 -0.119261235
0.00905115 -0.03481491 0.0218564 0.36234987 -0.8124185 0.35033542 -0.016326204 -0.13020645
-0.027876962 0.03361584 -0.1370088 -0.050306972 0.13021155 0.1039 0.13671121 0.21203831
0.1682913 -0.124779 0.038110938 -0.07916928 0.015463556 0.10437734 0.2588905 0.029394915
0.0112446 -0.08927059 -0.01893549 0.045522485 -0.19222203 -0.06683135 0.06581925 0.10413973
0.0328742 -0.009534914 -0.24242635 -0.16051514 -0.13556549 -0.29220682 0.027246317 0.04443123
0.15963846 0.106387794 -0.092090815 -0.06950232 -0.07043651 -0.05122614 0.10106251 0.000427182
0.42428666 0.42357638 0.0282922 -0.36414894 -0.0398932 -0.035980847 -0.5383173 -0.025014127
-0.26823774 0.23482855 0.07497434 0.021832509 -0.10320787 0.46326318 -0.33834034 -0.696676
-0.23126642 -0.29827788 0.1999015 0.57558894 -0.5648553 -0.36480615 0.013076415 -0.65018964
0.05584508 -0.6763527 -0.0304029 0.16686293 -0.222977 0.12545706 0.42088664 0.2999511
0.14205202 0.7404638 -0.0179381 0.75364274 -0.060500596 -0.094240494 0.099000536 -0.02694652
0.13831148 -0.46711227 -0.1642217 0.1797064 -0.23840217 0.23423953 -0.041908987 1.0231189
0.19486122 0.0305504 -2.8035088 -1.0218228 -0.0376289 2.533366 -0.0125443 2.3166757

MatMul_H5.bias f4 [50]
00000000: 6bf4 8a3e 1cd9 f7bd 9934 fd3c 1bf2 fabd
00000010: ab00 25bf bb87 5cbd b90e 543e 0bfb 95bf
00000020: 5cc1 883e 9fa8 03be e560 26bf 38c0 a7be
00000030: 8289 19bf ffc8 38be d266 663d 5ca8 943d
00000040: bc06 f23e b5bd 11bf 2c83 d23d 4ba9 07c0
00000050: 5d5a 1fbf 7336 8c3e f610 aabd 4906 bdbf
00000060: 84e7 223e 7cb1 903d cda5 ec3e 7389 2bbf
00000070: e06f 9abe e685 b1bf 133e a93e 2109 32bd
00000080: c5f0 05bb 1344 7dbd d9a9 db3d 6eec 6b3e
00000090: c6fe b1be 3de4 7ebd 6dd1 72be eed9 55be
000000a0: 93f1 4abf c760 173e 5ab1 b4bd 2e34 8cbd
000000b0: 4b1b 013e 1ced 883e c014 843d eeb5 8c3e
000000c0: 20dc 2f3e 6daa eebc
0.271396 -0.12101957 0.03090887 -0.12253209 -0.64454144 -0.05384038 0.20708741 -1.1717237
0.26710021 -0.12857293 -0.649916 -0.3276384 -0.59975445 -0.18045424 0.0562504 0.072586745
0.47270763 -0.56930095 0.10278925 -2.1197078 -0.6224726 0.2738529 -0.08304016 -1.4767543
0.15908629 0.070651025 0.46220246 -0.67006606 -0.3016348 -1.3868988 0.3305517 -0.043465737
-0.00204377 -0.0618325 0.10725755 0.2303941 -0.3476469 -0.062229384 -0.23712702 -0.20883915
-0.79274863 0.14783011 -0.088228896 -0.0684589 0.12608068 0.267434 0.0644927 0.2748255
0.17173815 -0.029134

MatMul_y_out.weight f4 [5, 50]
00000000: eab3 933d bcd3 863d 7064 1f3e 63a5 f9bd
00000010: 36e8 8b3c 4aea 30bc d985 a1bd 75f0 2e3d
00000020: f64a 923c bfa2 373e b246 dd3d 30c5 583d
00000030: bd71 f83d ffb4 7f3d 064a 823e 675e 9f3d
00000040: 83df 453d 3f55 e43c 7b7f 843d b8a2 cd3a
00000050: bfea 473c d114 363d 4657 9a3d 67af 2e3d
00000060: 352d 8ebc 7dd4 823c e042 553b 0ac2 6b3d
00000070: 277d 653d 77d3 a63c dcca 4cbb 2608 f03c
00000080: 9fad 66bb f42c 2d3c 19ca 123d 5b32 f03c
00000090: c019 9f3c 23b9 503d 8ffe b53c f60f 4c3d
000000a0: 90d3 63ba 461c 0a3d 759b d03b 945e 653d
000000b0: 9769 83b9 e45b b73c 287e b53d c4fe db3d
000000c0: 0257 7a3c dfb6 c03c e474 983d 3727 4f3d
000000d0: 9cd8 003d 57bc 393d 7af0 dc3c 0b34 8abc
000000e0: 455b 323c c90d 053c ba33 713c a893 343c
000000f0: 0395 013e 6a97 5c3d c36f f03d 063a 9d3d
00000100: e370 463f 017c ef3c b6d2 5d3d 1c01 cc3c
00000110: 3456 983d 21a5 2fbb e4ba 0a3d 6f27 3a3d
00000120: 07d7 af3d 5955 d63c 215d 8bbc 461c 363c
00000130: 1b05 ab3c 84bd fa3c d27e 5f3d 28f4 b13c
00000140: 8663 753c d42b 473d 9916 50bc 3bdc 533d
00000150: d3c9 483d de1d a23c 3d0c 183d 7d64 813d
00000160: 8a99 023d c9e5 093d 5c54 98bc b568 b63d
00000170: ff4e f23c 294b e3bb 0fce 58bc 2516 b53c
00000180: 9ced aa3d fde1 063e 2497 803c 4af1 713c
00000190: 6094 8b3d a6e4 5f3d 7e15 313d 1480 ca3c
000001a0: 7ef4 8b3c e724 a9bc 6fc8 9cba 4f1d 493c
000001b0: 0097 ac3c b98d f23c cd56 de3d bfac 7a3d
000001c0: 2392 fb3d d3d3 913d 37fd 293f 7b46 503d
000001d0: a820 2e3d 44b7 213d 73e3 8c3d 722c 2f3d
000001e0: d004 8d3c a592 513d 8d5c b23d 2f28 f13c
000001f0: 9899 8cbc 52ec 153d 7241 1a3b e082 403d
00000200: 779f a43d 8821 263c c34e 4abb de0e ca3c
00000210: 176f 5abd c1b1 80bb 1129 583d 15dc 823d
00000220: 5c71 09bc 28bd 5f3d f667 053c e3c9 343d
00000230: 4914 46ba 3d51 5b3c da3a 333c bc78 8b39
00000240: b625 39bc 43ce 1a3c 3761 ac3d 9089 133e
00000250: 204b 793d c61e f33b 515f a03d 7625 efbc
00000260: 1295 0dbc e3f0 75bc e15a 593c fb98 f8bc
00000270: adf1 80bc e80b fabb 103e 8dbd 259b 1ebd
00000280: 4371 073e 1792 50bc 58cc 483d cde6 6a3c
00000290: ef01 0a3f 7293 88bc d1c0 12bd 667c 1cbd
000002a0: 9a4e 043d a6b2 54bd 6621 ebbc a18b 7bbd
000002b0: a3e3 bfbd 3c5e 003c 9bd3 0bbd 6b40 cc39
000002c0: b538 f23b 9baf d9bc b249 63bd a526 16bd
000002d0: 11ea 0f3c 1676 413c a098 abbc 431e 913d
000002e0: fc2c 0dbc 1477 77bd eaad 22bd 899d b1bc
000002f0: 2d8b be3b 556f 5cbc 2dd0 3dbd 004f 4bbd
00000300: cf7e ae3c 16ad f5ba 637e 25bb 6c4e 3dbd
00000310: c061 673c ab54 183e 5e76 33bd d0a8 2f3d
00000320: 5fe9 a13c d0c0 3d3d a0e5 1c3d ed6b e53c
00000330: cb8b 1f39 15a9 e0bc 701e 1539 c466 603c
00000340: 51f4 ab3c 1280 d93c de70 843d 22bc 7f3d
00000350: f250 fd3d c56f 8e3d 5bef 1f3f 5f51 253c
00000360: c948 243d be90 433d 7238 8e3d 2843 b83d
00000370: 12de 7a3c 144b 5f3d 0e04 193e b211 233d
00000380: 32b9 83bc 14d8 1a3d 34ac 69bc ded9 543d
00000390: 2952 d63d 4cbd 213c 26ea debc 9681 db3b
000003a0: da81 04bd 368d 923c af68 543d a2e4 8e3d
000003b0: bd14 5fbc b37c 593d a297 a6ba 1ac1 3c3d
000003c0: 4155 963c baaa dc3a 5787 05b9 521d ddba
000003d0: c415 b7bb 4d96 0a3a 9599 a53d 3137 e83d
000003e0: c792 913d 462a 07bd
0.0721205 0.06583354 0.15565658 -0.12189748 0.0170785 -0.010798046 -0.078868575 0.042709786
0.01785801 0.17933176 0.108045 0.052922428 0.12131069 0.06242847 0.254471 0.07781678
0.04830886 0.02787268 0.064696275 0.0015688753 0.012201964 0.044453446 0.07536177 0.042647745
-0.01735554 0.015970463 0.0032541081 0.057558097 0.056027558 0.020364506 -0.0031248843 0.02930076
-0.00351987 0.0105698 0.035837267 0.029320886 0.019421458 0.05095781 0.02221611 0.04981991
-0.0008690888 0.03371837 0.006366188 0.0559984 -0.00025064938 0.022382684 0.08861953 0.10741952
0.015279533 0.0235247 0.0744417 0.050574508 0.031456575 0.04534563 0.026970137 -0.01687052
0.010886018 0.008120962 0.014721805 0.011021532 0.126545 0.053855337 0.11740067 0.07677083
0.77516 0.029233934 0.054156028 0.024902873 0.07438317 -0.0026801305 0.03386964 0.045447763
0.08585935 0.026163744 -0.01701218 0.011115139 0.020876458 0.030607946 0.054564305 0.021722868
0.0149773415 0.048625782 -0.0127007 0.0517237 0.0490206 0.019789632 0.037121046 0.06317995
0.031884708 0.033666406 -0.018594913 0.0890669 0.029578684 -0.00693645 -0.013232722 0.022105286
0.08346102 0.13172145 0.01569707 0.014767 0.0681541 0.054661416 0.043233387 0.024719276
0.017084356 -0.02064748 -0.0011961589 0.012275054 0.021068096 0.029608594 0.108564 0.0611999
0.12283733 0.071204804 0.66402 0.050848465 0.042511612 0.039481416 0.0687932 0.042766996
0.017214209 0.05116524 0.08709059 0.029438106 -0.017163083 0.036602326 0.0023537544 0.046999812
0.08038228 0.01013983 -0.00308697 0.024665292 -0.0533286 -0.00392744 0.05277354 0.063896336
-0.008388843 0.054623753 0.008142462 0.044137847 -0.00075561233 0.013386068 0.010939324 0.000266021
-0.011300495 0.009448591 0.0841698 0.14407945 0.06086266 0.00741944 0.0783068 -0.029192667
-0.008641498 -0.015011045 0.013266296 -0.030346384 -0.01574024 -0.007630814 -0.06896603 -0.038722176
0.132268 -0.012730143 0.049023002 0.014337254 0.539092 -0.01667187 -0.035828415 -0.038204573
0.032301523 -0.051928185 -0.028702449 -0.061412457 -0.0936959 0.007834967 -0.03413735 0.00038957907
0.007392014 -0.026572993 -0.055490203 -0.036657948 0.008783833 0.011807939 -0.0209468 0.0708585
-0.008616682 -0.060416296 -0.03971664 -0.021681564 0.005814931 -0.013454278 -0.04634111 -0.049635887
0.021300701 -0.00187436 -0.0025252334 -0.046217367 0.0141224265 0.14876048 -0.043814056 0.0428856
0.0197646 0.04632646 0.038304925 0.028005565 0.00015215499 -0.027424375 0.00014221086 0.013696376
0.020990523 0.026550326 0.0646684 0.062435277 0.12368955 0.06954912 0.624746 0.010090201
0.040108476 0.04774546 0.0694436 0.08997184 0.015311735 0.05451496 0.14942953 0.039811797
-0.016079519 0.037803724 -0.014262248 0.051965587 0.104648896 0.009871792 -0.02721126 0.0066987975
-0.0323504 0.0178896 0.051857647 0.06977202 -0.013615784 0.053097438 -0.0012709985 0.046082594
0.0183512 0.0016835548 -0.00012734286 -0.00168697 -0.0055873115 0.0005286679 0.08085934 0.11338652
0.07108074 -0.0329993

MatMul_y_out.bias f4 [5]
00000000: 052c 003d c232 563c 5b7d 563d cbd4 90bc
00000010: fc80 583d
0.03129198 0.013073625 0.052365642 -0.017679593 0.052857384
