ACAS_Xu/models/5_repair.pth (torch, 57901 bytes, 14 tensors)

MatMul_H0.weight f4 [50, 5]
0.10512721 0.7634562 -0.781666 -0.12756163 -1.4107105 0.08283205 0.5772944 0.37881064
-0.28071892 0.2191432 -1.6818185 -0.011438687 0.005550873 -0.02195545 0.043900948 0.2126188
1.442096 -1.508195 0.088683814 -0.03684262 -0.06416091 1.247177 0.07575648 0.052558515
0.0062512606 0.013573706 -0.10704342 0.119927384 -0.5852939 0.6376542 -0.30735683 -0.44135883
-0.12714075 0.26740038 -0.044077605 0.0018823461 0.02772898 -0.067040786 -0.8579456 -0.9396983
0.0187314 0.00682047 -2.8228e-05 0.00381154 0.0038649 -0.5067684 0.32363993 0.06152775
0.07105483 0.02406986 0.04568576 0.5220317 0.08462115 -0.18928131 -0.053218972 0.071515486
-0.061378058 1.3001351 0.066334106 -0.11914576 -0.038964666 0.0036477505 0.0071781785 -0.5834904
-1.3265691 0.016233267 -0.028585343 0.13825227 -1.4084427 0.79400146 -0.8883021 -0.059721444
0.03816203 -0.015683798 0.020142416 0.016343098 0.11297163 0.6094959 -0.69935846 0.11552112
0.032304782 0.038647458 -0.50648546 0.5060876 -0.8247671 -0.6336291 0.12534958 -0.10880058
-0.38093942 0.18434413 -1.1892282 0.11461126 -0.0818703 -0.30544937 -0.59266734 -1.4823877
-0.007294493 0.003487434 -0.015413267 0.024101714 -0.00636606 0.00241902 -0.00249703 0.00326182
0.00571855 0.014102922 1.1464695 0.008240474 0.18044057 -0.14460911 -0.04734296 -0.026533965
0.11825905 0.060844027 -2.0714564 -1.2937435 0.06703158 -0.084992945 0.32566804 -0.40282553
-0.75302 0.28164655 -0.42924094 0.08579925 -0.024784472 -1.2328287 0.002363879 0.008297531
-0.0040687234 -0.410764 -0.010992087 -0.047288448 0.018776324 -0.75180465 -0.11592016 0.031638928
-1.211523 0.9203985 -0.016304374 0.03252303 0.041780964 1.9701457 0.00318041 0.0527822
-0.07660551 -1.4669602 0.016869301 -0.046830546 -0.2410092 -0.0344695 0.3466964 0.9145294
-0.80836135 -0.024653446 0.10870875 -0.3778701 0.0013185792 0.61776537 -0.02463737 -0.018886779
0.057415985 0.9217357 0.05137193 -0.34902143 0.0028654775 -1.4627002 0.051143065 -0.017439285
-0.21700794 -0.3310599 0.030861167 -0.054999735 -1.0818133 -1.0226465 0.26015028 0.0109766
0.00977412 0.00138954 0.00183101 -0.000362569 -1.7762804 -0.0036957036 -0.0130915 0.0056492486
0.021749267 0.014165021 0.20616962 -0.18671648 -2.0255415 0.40774184 0.088630736 -0.9212959
-0.996056 0.045893006 -0.082639456 -0.80473596 0.036232352 -0.016289037 -0.9123039 -0.50849926
-0.015252583 -0.060429744 0.10715831 -0.06392507 -1.1221719 -0.06946967 0.6637244 -0.47640637
0.021246962 -0.13176404 0.3634801 -1.077779 0.9536931 -0.04260413 -0.05242192 0.1905323
0.05230584 -0.043265413 -0.7416893 -1.0588671 -0.38913903 0.029821886 -0.005386691 -0.19556078
-0.06366519 -0.20943357 0.3067742 -0.71897185 -0.06859578 0.45058554 0.018476587 0.09021882
-1.7842396 0.002413848 0.0005547642 0.010031758 0.3207202 -0.35381475 -1.1128998 -0.87650913
-1.3175155 -0.041194785 0.01886573 -0.025629062 0.037560016 -0.008385507 0.036905836 -0.061268367
-1.3668576 0.63206655
00000000: ef4c d73d de71 433f 431b 48bf 849f 02be
00000010: 2992 b4bf daa3 a93d 91c9 133f 78f3 c13e
00000020: 64ba 8fbe 1367 603e d445 d7bf 5569 3bbc
00000030: 19e4 b53b eadb b3bc 7bd1 333d beb8 593e
00000040: 9a96 b83f 890c c1bf dc9f b53d 49e8 16bd
00000050: cc66 83bd 7fa3 9f3f 3726 9b3d 9947 573d
00000060: 60d7 cc3b 4064 5e3c 9539 dbbd 7d9c f53d
00000070: d2d5 15bf 4e3d 233f e05d 9dbe c9f9 e1be
00000080: 2f31 02be b4e8 883e b88a 34bd 0eb9 f63a
00000090: e327 e33c ae4c 89bd 53a2 5bbf 1190 70bf
000000a0: 9872 993c 407e df3b 2bcb ecb7 08cb 793b
000000b0: 434a 7d3b 93bb 01bf 22b4 a53e 8604 7c3d
000000c0: 3285 913d 282e c53c fe20 3b3d dfa3 053f
000000d0: da4d ad3d f6d2 41be 23fc 59bd b676 923d
000000e0: 8f67 7bbd d46a a63f 2dda 873d b102 f4bd
000000f0: 6a99 1fbd 190f 6f3b ed36 eb3b a05f 15bf
00000100: 04cd a9bf a1fb 843c cf2b eabc 0192 0d3e
00000110: da47 b4bf ae43 4b3f c467 63bf 799e 74bd
00000120: ca4f 1c3d 4f7b 80bc b501 a53c f6e1 853c
00000130: ac5d e73d ec07 1c3f 2809 33bf 5696 ec3d
00000140: 0552 043d cc4c 1e3d 08a9 01bf f58e 013f
00000150: f023 53bf 8435 22bf a45b 003e d7d2 debd
00000160: 7e0a c3be b5c4 3c3e a138 98bf 4fb9 ea3d
00000170: 9eab a7bd dc63 9cbe 0cb9 17bf e1be bdbf
00000180: a406 efbb 6f8d 643b ed87 7cbc f570 c53c
00000190: 629a d0bb 6c88 1e3b 36a5 23bb 42c4 553b
000001a0: ad62 bb3b f10f 673c 83bf 923f 0e03 073c
000001b0: 6ac5 383e 6914 14be b1ea 41bd c25d d9bc
000001c0: cd31 f23d 9637 793d be92 04c0 6399 a5bf
000001d0: da47 893d c810 aebd f6bd a63e 263f cebe
000001e0: ebc5 40bf fa33 903e 78c5 dbbe 84b7 af3d
000001f0: ce08 cbbc 55cd 9dbf 4feb 1a3b 5ef2 073c
00000200: ed52 85bb a94f d2be 2818 34bc 88b1 41bd
00000210: ced0 993c 4576 40bf 8d67 edbd d297 013d
00000220: 3013 9bbf 3c9f 6b3f c090 85bc de36 053d
00000230: 8422 2b3d bc2d fc3f 6d6e 503b 2632 583d
00000240: 5ae3 9cbd 5ac5 bbbf 7d31 8a3c 63d1 3fbd
00000250: 1ecb 76be e42f 0dbd 3182 b13e 991e 6a3f
00000260: c5f0 4ebf 06f6 c9bc b1a2 de3d 3178 c1be
00000270: 2dd4 ac3a df25 1e3f 4fd4 c9bc 72b8 9abc
00000280: 062d 6b3d dff6 6b3f 5f6b 523d f0b2 b2be
00000290: bcca 3b3b c339 bbbf 647b 513d d5dc 8ebc
000002a0: 5437 5ebe af80 a9be 8fd0 fc3c 6747 61bd
000002b0: dc78 8abf 15e6 82bf 6b32 853e 33d7 333c
000002c0: a123 203c 3a21 b63a 80fe ef3a 3017 beb9
000002d0: 285d e3bf 9e33 72bb bb7d 56bc 551d b93b
000002e0: 852b b23c 6714 683c 211e 533e 9b32 3fbe
000002f0: 79a2 01c0 8ac3 d03e 0884 b53d 0cda 6bbf
00000300: 87fd 7ebf 4efa 3b3d e03e a9bd 2d03 4ebf
00000310: 6068 143d 9670 85bc c08c 69bf 022d 02bf
00000320: f8e5 79bc 2e85 77bd d175 db3d 26eb 82bd
00000330: 54a3 8fbf 1d46 8ebd d8e9 293f 89eb f3be
00000340: 1c0e ae3c 27ed 06be 101a ba3e aaf4 89bf
00000350: 3b25 743f ab81 2ebd 5eb8 56bd e61a 433e
00000360: a63e 563d 1337 31bd 5adf 3dbf f588 87bf
00000370: 3b3d c7be 074d f43c d782 b0bb 1641 48be
00000380: e562 82bd c175 56be 8211 9d3e 8a0e 38bf
00000390: f27b 8cbd 26b3 e63e 365c 973c a5c4 b83d
000003a0: f761 e4bf a631 1e3b 986d 113a 3e5c 243c
000003b0: 7035 a43e 3527 b5be 8073 8ebf e762 60bf
000003c0: 59a4 a8bf ddbb 28bd 4e8c 9a3c 0af4 d1bc
000003d0: 88d8 193d 5e63 09bc 932a 173d 8af4 7abd
000003e0: 31f5 aebf 1dcf 213f

MatMul_H0.bias f4 [50]
-0.5163829 0.08067773 -0.3543979 -0.43321157 0.36790502 0.11109521 0.0075326264 -0.43925005
-0.0246554 0.02968645 0.1753707 0.13960989 -0.78664505 -0.2746905 -0.011619107 -0.19128263
0.043265976 -0.09275865 -0.5131573 -0.2586656 -0.0128919 0.13143551 -0.7468925 -0.38677484
-0.09142942 -0.17473683 0.23246011 -0.42125198 0.071263075 -0.2895821 0.5145526 -0.1257231
-0.43120447 -0.44081098 -0.5808667 -0.0249557 -0.47870833 -0.7728769 0.028184682 -0.78060925
0.2620444 0.15938574 0.60781944 -0.55500126 0.12860027 -0.0017024778 -0.017513955 -0.24026018
-0.16256979 0.009503803
00000000: ab31 04bf 5e3a a53d a473 b5be e8cd ddbe
00000010: 0c5e bc3e e385 e33d 40d4 f63b 62e5 e0be
00000020: 1ffa c9bc ff30 f33c 6094 333e e5f5 0e3e
00000030: 9261 49bf 3ca4 8cbe 115e 3ebc 98df 43be
00000040: aa37 313d 3ff8 bdbd 475e 03bf d16f 84be
00000050: 8c38 53bc 0897 063e 5934 3fbf 5a07 c6be
00000060: 593f bbbd 36ee 32be 060a 6e3e 57ae d7be
00000070: 60f2 913d 1b44 94be b8b9 033f 8ebd 00be
00000080: d5c6 dcbe fab1 e1be aeb3 14bf e56f ccbc
00000090: 4219 f5be 43db 45bf 90e3 e63c 02d6 47bf
000000a0: af2a 863e 0436 233e 0e9a 1b3f 9014 0ebf
000000b0: caaf 033e ad25 dfba 6d79 8fbc c406 76be
000000c0: b278 26be d7b5 1b3c

MatMul_H1.weight f4 [50, 50]
0.82655704 0.00610652 -0.2334111 0.43733847 -0.028136233 1.6552502 -0.10932114 0.41666216
-0.0271233 -0.6207422 -0.2866749 0.59636 0.53634334 -0.99659026 -0.0617265 -0.408708
1.8634869 -0.023309382 0.054532234 -0.5507258 -0.044766 0.5367524 -0.5116707 0.24017335
-0.04423219 0.5680832 -1.1107222 0.354313 -0.22572356 0.48197824 -0.27212873 0.302139
-0.0844785 -0.20567365 -0.5593337 -0.0512682 0.61394876 -0.8607092 0.07074085 -0.8168395
0.7009153 -0.30259 -0.33729514 -0.40715164 -0.51373035 0.9317833 -0.23371033 1.1896297
-0.11944638 0.22197591 0.0156873 -0.00881759 -0.0197608 0.024598 -0.0426623 0.00911225
-0.0448612 0.0159374 -0.0117646 -0.0411962 -0.00525308 -0.0240166 0.0166501 -0.0522172
-0.0526038 -0.029483 -0.0232029 0.046845 -0.0314594 -0.0309089 -0.0358902 -0.0323923
0.0156183 0.0243959 -0.0297363 0.00153892 -0.0397034 -0.0320556 -0.0433891 -0.0486308
0.000617388 -0.0123283 -0.0464582 -0.0224021 -0.0554333 -0.00943566 -0.0163192 0.0317143
-0.0301583 -0.00267657 0.00480888 0.0129656 -0.0422428 -0.0100659 0.0222074 0.0307502
0.0311194 -0.0219847 -0.00577401 -0.0095221 0.93650097 0.18283567 -0.12606493 0.13200937
-0.83733255 -2.1299155 0.04063603 -0.6931859 -0.0424226 0.18024129 -0.51240176 -0.18068255
1.4068348 -0.38281083 0.4104392 -0.192407 -0.29931277 0.38868782 0.5424945 -0.2115955
0.0125824 -0.7088136 -0.60847765 -0.16244632 0.7743935 0.22823024 0.26491794 -1.3765368
-0.29987732 0.04265057 -0.45072553 -0.9209472 0.0935515 0.4586592 0.19223659 -0.00718427
-2.0821054 -1.4371454 0.112519845 1.619354 0.069315776 -0.5079489 0.6729375 -0.45636815
0.4531969 0.48856694 -0.26059508 0.21105915 -0.17643288 -0.55629414 0.06448142 -0.02509376
0.30537552 -0.18818681 0.20642607 0.02375663 0.22501773 0.42046022 0.00340302 -0.011230072
0.14953908 -0.012412007 0.83402884 -0.16091374 0.30437383 0.047590293 -0.07026023 0.3218851
0.90693283 0.28514227 -0.0254172 -0.13550809 0.10398569 -0.12950942 0.21905063 0.41269982
0.48702297 -0.8366542 0.17903559 0.5654866 -0.38201603 -0.055031102 -0.7731472 0.9163844
0.33368397 0.0344651 -2.2578132 0.2879277 0.14334562 2.2383196 0.41599375 0.046330657
-0.3026401 -0.3493383 0.50449467 0.44238734 -0.63286877 0.30130294 0.30693427 0.14497963
0.12251986 0.08351918 1.8463014 -0.18894216 0.24425992 0.045373358 0.24880093 -0.28949818
-0.0144949 0.4288342 -0.27352956 -0.2686975 -1.8467675 -0.05800692 0.12913117 0.031260993
0.0317205 0.16475151 0.7107341 0.791054 0.00409765 -0.110515125 0.15402445 0.044008937
-0.30636355 -0.04023767 -0.015125355 0.38893235 -0.0551469 -0.29264843 0.061675634 0.00034546232
-0.7435345 0.23866709 -0.10201765 0.0076534 4.780114 0.18188582 -0.1675044 -1.6614757
0.11160712 0.2577536 0.07049636 -0.71481663 0.2814221 0.24067082 0.21566205 -0.04065188
0.8892666 0.05274349 0.100125 -0.23688965 0.0341341 -0.36967865 -0.18922304 0.94806975
00000000: 3e99 533f 3419 c83b 5203 6fbe d4ea df3e
00000010: f57d e6bc 3ddf d33f c3e3 dfbd be54 d53e
00000020: af31 debc f6e8 1ebf 0dc7 92be 0dab 183f
00000030: cc4d 093f 8a20 7fbf edd4 7cbd 2d42 d1be
00000040: bd86 ee3f 51f3 bebc 315d 5f3d 5efc 0cbf
00000050: 8e5c 37bd 9b68 093f dafc 02bf 01f0 753e
00000060: d02c 35bd e76d 113f 252c 8ebf 8368 b53e
00000070: 1424 67be dac5 f63e 7554 8bbe f7b1 9a3e
00000080: 1003 adbd 1d9c 52be 7e30 0fbf 9bfe 51bd
00000090: bf2b 1d3f 7057 5cbf 94e0 903d 651c 51bf
000000a0: 2f6f 333f 14ed 9abe f3b1 acbe 2e76 d0be
000000b0: d583 03bf 5a89 6e3f c351 6fbe c945 983f
000000c0: 4ea0 f4bd a74d 633e a782 803c a777 10bc
000000d0: 67e1 a1bc bf81 c93c aabe 2ebd 8c4b 153c
000000e0: 61c0 37bd 268f 823c 4fc0 40bc 59bd 28bd
000000f0: 0722 acbb 76be c4bc ca65 883c b4e1 55bd
00000100: 1577 57bd 5586 f1bc 0214 bebc 8be0 3f3d
00000110: 92db 00bd a934 fdbc 9a01 13bd caad 04bd
00000120: e6e3 7f3c e9d9 c73c 8b99 f3bc 96b5 c93a
00000130: 08a0 22bd bc4c 03bd c5b8 31bd 1731 47bd
00000140: 35d8 213a a3fc 49bc f44a 3ebd 9c84 b7bc
00000150: 070e 63bd 0798 1abc d8af 85bc dbe6 013d
00000160: 8a0e f7bc 6569 2fbb cf93 9d3b ab6d 543c
00000170: c906 2dbd 72eb 24bc 4bec b53c d8e7 fb3c
00000180: 1dee fe3c 4219 b4bc e833 bdbb 9502 1cbc
00000190: 87be 6f3f 4639 3b3e 2a17 01be 772d 073e
000001a0: 6d5b 56bf 8950 08c0 f771 263d a274 31bf
000001b0: 52c3 2dbd 2c91 383e c32c 03bf d904 39be
000001c0: 2a13 b43f c8ff c3be 1625 d23e 5706 45be
000001d0: 863f 99be 1702 c73e ebe0 0a3f 7eac 58be
000001e0: 6926 4e3c cf74 35bf 31c5 1bbf 5458 26be
000001f0: a73e 463f 30b5 693e 53a3 873e 5c32 b0bf
00000200: 8589 99be 5db2 2e3d 7fc5 e6be 32c3 6bbf
00000210: ee97 bf3d 61d5 ea3e abd9 443e 066a ebbb
00000220: 3741 05c0 61f4 b7bf ce70 e63d fe46 cf3f
00000230: 6ef5 8d3d f008 02bf a245 2c3f 16a9 e9be
00000240: 6d09 e83e 7225 fa3e b86c 85be e41f 583e
00000250: d2aa 34be 4b69 0ebf d60e 843d 6e91 cdbc
00000260: 2e5a 9c3e 0bb4 40be 5b61 533e 449d c23c
00000270: 0c6b 663e 9046 d73e 3405 5f3b 56fe 37bc
00000280: c620 193e bb5b 4bbc ea82 553f 92c6 24be
00000290: e3d6 9b3e 0aee 423d 98e4 8fbd 20ce a43e
000002a0: c02c 683f 2bfe 913e bb37 d0bc a2c2 0abe
000002b0: 73f6 d43d 1e9e 04be cf4e 603e 644d d33e
000002c0: 135b f93e f82e 56bf 1b55 373e bbc3 103f
000002d0: 9b97 c3be 4b68 61bd faec 45bf 2b98 6a3f
000002e0: a0d8 aa3e 472b 0d3d 0380 10c0 426b 933e
000002f0: 32c9 123e a140 0f40 22fd d43e 37c5 3d3d
00000300: a5f3 9abe 78dc b2be 9026 013f 9880 e23e
00000310: b003 22bf 6144 9a3e 7d26 9d3e 8a75 143e
00000320: b1eb fa3d 1b0c ab3d 9b53 ec3f 0e7a 41be
00000330: 461f 7a3e 6ad9 393d acc5 7e3e 1b39 94be
00000340: 047c 6dbc 2890 db3e 110c 8cbe b892 89be
00000350: e162 ecbf aa98 6dbd f63a 043e 870b 003d
00000360: 5bed 013d 9fb4 283e acf2 353f 8482 4a3f
00000370: 9445 863b c155 e2bd 96b8 1d3e b742 343d
00000380: afdb 9cbe 41d0 24bd 56d0 77bc 2422 c73e
00000390: b7e1 61bd 04d6 95be 979f 7c3d 2b1f b539
000003a0: 4758 3ebf 2565 743e a1ee d0bd 5fc9 fa3b
000003b0: b2f6 9840 4740 3a3e 4686 2bbe 3cab d4bf
000003c0: 4692 e43d 48f8 833e 6560 903d 39fe 36bf
000003d0: 8f16 903e 6972 763e 83d6 5c3e 9682 26bd
000003e0: faa6 633f 8f09 583d 560e cd3d 3393 72be
000003f0: 33d0 0b3d 8546 bdbe afc3 41be b3b4 723f

MatMul_H1.bias f4 [50]
-0.88948435 -0.0186995 0.19953382 0.6163499 -0.27435857 0.22195281 0.44087344 -0.10881643
0.2351051 0.26240024 0.4242187 -0.9014504 -0.8252199 -0.0386541 0.55300915 -0.0176162
0.61296153 -1.1908727 -0.42348543 -0.126739 -0.76380414 0.09045964 -0.052210055 -0.36374527
-0.6979063 -0.00811401 -0.24598788 0.40090406 -0.0146783 0.0025647257 -0.44897923 -0.0150303
-0.00886151 -0.0620336 0.6257992 -0.059823215 -0.0152161 0.864537 0.5066865 0.14600702
0.4049411 -0.030728959 -1.1331383 -0.41692796 0.56667656 -0.0160021 -0.072950356 0.6029327
0.53896236 -0.030064067
00000000: 3fb5 63bf b22f 99bc 9852 4c3e 1bc9 1d3f
00000010: ba78 8cbe 9947 633e 2aba e13e 26db debd
00000020: 64bf 703e 5359 863e 3233 d93e 74c5 66bf
00000030: 9d41 53bf c353 1ebd 0292 0d3f d94f 90bc
00000040: 0ceb 1c3f 846e 98bf 15d3 d8be dec7 01be
00000050: ab88 43bf e742 b93d 36da 55bd d23c babe
00000060: fda9 32bf a0f0 04bc 3fe4 7bbe 4c43 cd3e
00000070: 417d 70bc f514 283b 9be0 e5be a641 76bc
00000080: de2f 11bc f216 7ebd 6034 203f 3009 75bd
00000090: f34c 79bc 4c52 5d3f 35b6 013f dd82 153e
000000a0: 7154 cf3e 4cbb fbbc ad0a 91bf 9577 d5be
000000b0: b711 113f d616 83bc ff66 95bd cc59 1a3f
000000c0: 70f9 093f eb48 f6bc

MatMul_H2.weight f4 [50, 50]
0.26565593 0.0402979 0.09114151 -0.31781816 0.23363785 0.09520511 0.19715165 -1.2424233
0.6101457 -0.17515779 1.7800287 0.6980663 -0.40646398 0.56799704 0.9425234 -0.000803617
-0.21350263 0.22256798 3.1436374 -0.0176819 1.746705 0.29995272 0.5433124 -0.5718773
0.3065611 0.0313428 -0.31805807 0.28786078 -0.0359435 0.7224407 -0.60291195 -0.0374253
-0.0397935 -0.00187245 -0.31822562 0.5677018 -0.0149275 -0.25548804 0.99611235 0.044524446
-0.8454405 -0.20272696 1.0068158 -1.29717 0.18314302 0.0115684 -0.32192114 -0.687728
-0.60318166 1.2074956 0.144168 -0.00133566 1.0294188 -0.44804662 -0.14362453 3.8904026
0.589583 -0.6635819 -0.730919 0.09391276 0.7431688 0.4013593 -0.26151076 1.8000715
-0.20517246 -0.0212844 0.2687936 0.33930975 0.21141033 0.913193 0.16542213 0.55941653
0.28159514 -0.288067 -0.1757585 0.00569279 -0.754829 -0.29298556 0.0376479 1.0349941
0.03739463 -0.025494 0.0427147 -0.025198 -0.5574138 0.44539255 0.0296032 0.34504548
0.8423582 -0.30678794 -0.90302056 -0.2826269 0.883441 2.35995 0.1388783 0.0107137
0.20110662 0.60302955 -0.32839844 -0.66411287 -0.15925044 0.0350043 -1.0243169 0.058824413
-0.057577442 -0.7618676 0.39556798 0.8002766 0.1722002 0.44751814 0.3444797 -0.13546732
0.22286355 0.45949695 -0.373942 0.0306406 0.053708497 0.84170073 -0.12200839 0.489968
-0.2714458 -0.43390524 0.12012597 -0.8150702 0.47935668 0.0361689 0.3817722 0.4799406
0.0106546 -1.23988 -0.865185 0.00396588 -0.0342855 0.0441278 -1.0445116 0.48848578
0.00710231 -0.6239954 0.8068947 0.7953338 -0.113831244 0.41933182 0.33968663 1.9363
-0.14617945 0.00760494 0.12721801 -0.58561707 -0.13701285 0.34923074 0.016447108 0.0475383
-0.010516324 0.32010654 -0.5173544 0.036218815 0.051458266 -0.035958137 0.060834303 -0.10005002
-0.067632124 -1.3507396 -0.44247437 -0.048297536 0.0063063744 -0.0120142 0.29303092 -1.3490981
0.035013992 0.232076 -0.093972124 0.047747754 0.092063226 -0.054757193 -0.18312925 -0.0138879
-0.004400343 0.006947501 0.031912 -0.10322713 -0.050961185 0.0203916 -0.0217967 0.025052
0.04152211 0.024765361 0.0427338 -0.01838937 0.17946516 0.1678326 0.0317749 -0.0039626323
-0.0065858085 -0.15994656 -0.4409671 0.00561297 0.08713024 -0.013932563 0.025501475 0.13769919
0.3023283 -0.0223532 -0.2935239 0.73302764 -0.20983563 0.009736223 0.26328894 -0.26082814
0.4317822 0.15338717 0.5631662 1.1894094 1.0225891 0.024755672 -0.03650251 0.0237078
-0.57631946 2.0273798 -0.4706383 -0.772301 0.17715012 -0.086145215 0.14381401 -0.2878605
-0.06323097 0.00820956 -0.09875664 0.18861008 0.00473774 -0.94940203 0.25722054 0.00485867
0.0393423 0.0479927 -0.1485387 0.44415498 -0.0125074 -0.015903087 -0.17924213 0.38085666
-0.23063144 -0.28455842 0.57275546 -0.13766426 0.6855295 0.0223444 -0.41682765 0.24469608
-0.21062471 0.1365681 1.71683 -1.53592e-05 -0.796612 0.599621 -0.29563 -4.78531
00000000: 0e04 883e 690f 253d 66a8 ba3d 10b9 a2be
00000010: c33e 6f3e e6fa c23d 1fe2 493e ba07 9fbf
00000020: 8232 1c3f 905c 33be fbd7 e33f 79b4 323f
00000030: 0c1c d0be 4168 113f 3749 713f d3a9 52ba
00000040: 6fa0 5abe dce8 633e 5b31 4940 a2d9 90bc
00000050: 0894 df3f 6793 993e 8516 0b3f 8d66 12bf
00000060: 94f5 9c3e 4f61 003d 82d8 a2be 7d62 933e
00000070: 7e39 13bd e0f1 383f 7058 1abf 454b 19bd
00000080: 82fe 22bd ff6c f5ba 78ee a2be e854 113f
00000090: 7992 74bc 54cf 82be 3801 7f3f 445f 363d
000000a0: ca6e 58bf a897 4fbe 57df 803f ab09 a6bf
000000b0: d889 3b3e 6389 3d3c d9d2 a4be f10e 30bf
000000c0: 1d6a 1abf 378f 9a3f c7a0 133e 5011 afba
000000d0: ffc3 833f 5e66 e5be 4f12 13be 5bfc 7840
000000e0: e9ee 163f 81e0 29bf 821d 3bbf 5555 c03d
000000f0: 4f40 3e3f f77e cd3e bde4 85be be68 e63f
00000100: bb18 52be 9f5c aebc 519f 893e 02ba ad3e
00000110: f37b 583e 04c7 693f 6b64 293e ec35 0f3f
00000120: 3d2d 903e 857d 93be 09fa 33be 958a ba3b
00000130: 793c 41bf 3402 96be af34 1a3d b07a 843f
00000140: 1d2b 193d cbd8 d0bc 9cf5 2e3d 096c cebc
00000150: acb2 0ebf 7e0a e43e 6982 f23c cda9 b03e
00000160: c9a4 573f 4f13 9dbe 5b2c 67bf 79b4 90be
00000170: 3029 623f 6c09 1740 1d36 0e3e 8488 2f3c
00000180: e5ee 4d3e 2560 1a3f d723 a8be 4d03 2abf
00000190: 8c12 23be ab60 0f3d d11c 83bf def1 703d
000001a0: 53d6 6bbd c109 43bf e387 ca3e edde 4c3f
000001b0: 4055 303e 1921 e53e a55f b03e f2b7 0abe
000001c0: 5836 643e 2f43 eb3e 5375 bfbe ff01 fb3c
000001d0: 71fd 5b3d b379 573f 89df f9bd 16dd fa3e
000001e0: f2fa 8abe d428 debe 9b04 f63d 71a8 50bf
000001f0: 3d6e f53e d725 143d a577 c33e c6ba f53e
00000200: a290 2e3c 63b4 9ebf c47c 5dbf 36f4 813b
00000210: f46e 0cbd 5abf 343d 8eb2 85bf cf1a fa3e
00000220: 7fba e83b 2abe 1fbf a790 4e3f ff9a 4b3f
00000230: 5b20 e9bd a9b2 d63e 68eb ad3e aed8 f73f
00000240: 11b0 15be dc32 f93b 7045 023e 00eb 15bf
00000250: 194d 0cbe 5fce b23e 16bc 863c 85b7 423d
00000260: a94c 2cbc 01e5 a33e 5771 04bf 2e5a 143d
00000270: e7c5 523d d748 13bd 642d 793d 06e7 ccbd
00000280: b682 8abd 09e5 acbf 008c e2be a3d3 45bd
00000290: b4a5 ce3b 35d7 44bc 2608 963e 3faf acbf
000002a0: d56a 0f3d 55a5 6d3e 7574 c0bd 2693 433d
000002b0: a58b bc3d 1449 60bd 3c86 3bbe 138a 63bc
000002c0: c130 90bb dda7 e33b 28b6 023d bf68 d3bd
000002d0: adbc 50bd 490c a73c fe8e b2bc da39 cd3c
000002e0: 1713 2a3d bae0 ca3c a309 2f3d 4ea5 96bc
000002f0: b7c5 373e 4fdc 2b3e 6626 023d f8d8 81bb
00000300: c4cd d7bb 08c9 23be 71c6 e1be 01ed b73b
00000310: 5771 b23d 6845 64bc 78e8 d03c 0401 0d3e
00000320: c6ca 9a3e 0f1e b7bc c448 96be b3a7 3b3f
00000330: 27df 56be ae84 1f3c cfcd 863e 448b 85be
00000340: 8e12 dd3e 8711 1d3e a92b 103f 913e 983f
00000350: 33e4 823f 68cc ca3c a883 15bd dc36 c23c
00000360: ac89 13bf 97c0 0140 81f7 f0be 85b5 45bf
00000370: d766 353e e76c b0bd fb43 133e 7462 93be
00000380: 3d7f 81bd 6481 063c ec40 cabd 0023 413e
00000390: 0b3f 9b3b 030c 73bf 69b2 833e 7a35 9f3b
000003a0: 6425 213d fe93 443d 871a 18be 4868 e33e
000003b0: d6eb 4cbc 3147 82bc 408b 37be a5ff c23e
000003c0: a62a 6cbe a4b1 91be 1aa0 123f dcf7 0cbe
000003d0: dc7e 2f3f 9a0b b73c 6f6a d5be 9c91 7a3e
000003e0: 01ae 57be 82d8 0b3e 16c1 db3f a1d7 80b7
000003f0: c4ee 4bbf c380 193f d15c 97be 4221 99c0

MatMul_H2.bias f4 [50]
-0.6618354 -0.6507241 -1.553174 0.8091571 0.24789207 -0.129744 -0.116369836 -0.33143058
-0.26910844 0.21496734 -1.3662777 -0.0257474 0.63547033 -0.30076936 -0.5383103 -0.850009
0.21311435 0.33921474 -1.0567185 0.36286357 -0.018187 -2.8835213 -0.17043847 -0.067747355
-0.43555066 0.5333242 0.36567202 0.04663097 -0.06663812 -0.5744448 -0.1794388 -0.08212891
0.20381461 -1.1892061 -0.8812998 -1.0213023 -0.2625613 0.46263084 0.1903532 0.028451338
-0.08243883 0.28035203 -0.8889738 -1.2490185 -0.0349259 -0.86062807 -0.6440785 -0.21727559
-0.4667924 0.24409479
00000000: 0b6e 29bf db95 26bf 68ce c6bf eb24 4f3f
00000010: 6bd7 7d3e 9cdb 04be 4f53 eebd 45b1 a9be
00000020: 95c8 89be 6620 5c3e 30e2 aebf 36ec d2bc
00000030: 2fae 223f 71fe 99be b4ce 09bf 319a 59bf
00000040: a63a 5a3e 8ead ad3e 8d42 87bf 41c9 b93e
00000050: e7fc 94bc 9d8b 38c0 6c87 2ebe 20bf 8abd
00000060: 7f00 dfbe ef87 083f 5d39 bb3e 1e00 3f3d
00000070: 9179 88bd d00e 13bf cebe 37be 3433 a8bd
00000080: c7b4 503e e837 98bf dd9c 61bf 09ba 82bf
00000090: 6f6e 86be f3dd ec3e f3eb 423e c812 e93c
000000a0: b0d5 a8bd 4d8a 8f3e c993 63bf d7df 9fbf
000000b0: 760e 0fbd 1f52 5cbf 54e2 24bf 7e7d 5ebe
000000c0: 6aff eebe fcf3 793e

MatMul_H3.weight f4 [50, 50]
-0.18131094 -0.35960233 0.54864246 -0.42264554 0.22486643 0.282494 0.52628946 -0.5370343
0.7518539 -0.081615984 -0.4953302 -0.037101 0.52282304 0.5510723 0.064672366 -0.92759
-0.034485366 -0.048437353 1.2120354 0.22629023 -0.0295371 0.08384518 1.5305532 -0.7158036
0.2475553 0.580245 0.23935862 1.4543525 0.025435189 0.6659286 -0.6364031 -0.8701279
-0.53477454 -0.761803 -0.456476 0.2772999 -0.063281134 0.47376674 -0.41552496 -0.45896924
-0.08346445 -0.36202675 -0.061910577 -0.40440142 -0.0397338 0.08182409 0.0746211 0.54308105
-0.17093663 0.14511006 0.884927 -1.2304301 0.79037404 -3.8692737 -0.078745924 0.188453
-1.5145115 -0.5754668 0.31993794 0.16735496 0.9241066 0.00680371 -0.1337895 -0.3275297
0.4919518 0.489507 0.053458236 -0.7249646 -0.107883714 -0.29507655 -0.0288292 -0.56308883
-3.14243 -0.12310254 0.26986453 -0.5903551 -0.9913389 -0.080097854 0.52903944 -0.32753986
-0.12098127 0.5740608 0.07326797 -0.5696067 -0.242649 0.060281407 0.451385 0.5891244
-0.22171675 0.26492706 0.09887363 -0.6369177 0.47481638 0.17850992 0.00439609 -0.46854535
-0.15381941 -0.11739461 -0.36213407 -0.13327011 -0.23315722 -0.44152573 0.40896258 -0.58427113
-0.58160967 0.447561 -0.2264909 0.27426383 0.2867484 -0.09568723 0.22537164 -0.0181873
0.5457407 0.19354369 0.027616264 -0.835985 -0.1676472 0.12640433 -2.4500167 0.015242156
0.0462598 0.033880796 0.88135684 -0.10954157 -0.4967427 0.17812656 -0.032973424 -0.52506965
0.10122684 0.7905456 0.039796446 -0.31027615 0.31897205 -0.15961663 -0.07139312 -0.29189482
0.71847874 0.025606724 0.2791423 -0.09238316 -0.034714896 0.7830883 -0.36837795 0.017061917
0.0150748 0.13690628 0.23665522 0.032313846 0.38028604 -0.10667172 -0.16347691 -0.20465171
0.19463125 0.7093487 0.22988628 -0.907721 0.08366653 0.2139358 -0.12233474 -0.13457046
-0.5968324 0.0247004 -0.31686687 0.14193396 0.6486332 -0.758511 0.26931918 -0.21975076
-0.033711098 0.24202959 -0.0292225 -0.30960196 0.17755434 0.1511185 -0.13127007 0.4486325
-0.2654159 1.338138 0.1307824 0.31769043 -0.08467232 -0.30369392 -0.10657111 0.72287005
0.0229998 0.13273567 0.046595834 0.16721715 -0.13913749 -0.2836576 -0.08025616 -0.50059074
-0.31146765 -0.012708141 0.00239395 -0.0787952 0.75685316 0.57215196 -0.77247643 0.08017868
-0.0913881 0.06682496 -0.118904695 -1.6584761 0.07744428 0.00777065 0.1532908 0.057239633
-0.2773947 0.02749243 -0.0593385 -0.0131535 0.11113875 0.11038018 0.076970465 -0.0149897
0.15806119 0.025080815 -0.044443563 -0.048236173 0.00533348 0.111411765 0.21840192 0.50824976
-0.03094698 -0.27831045 0.02094367 -0.33745643 0.10644402 0.04098372 -0.044110652 -0.01195493
-0.07574224 0.05750273 -0.0930944 -0.15049236 -0.14076735 0.07189924 0.089868635 0.42824998
-0.137708 0.23821913 -0.121653385 0.123385236 0.0363548 0.23728596 -0.028568575 -0.053022128
0.34281334 -0.009232578 0.6782322 -0.5451456 0.4155801 -0.60235304 -0.31160593 0.480399
00000000: 93a9 39be cc1d b8be d573 0c3f ff64 d8be
00000010: 6343 663e 0ea3 903e e8ba 063f 147b 09bf
00000020: 7f79 403f 4826 a7bd ec9b fdbe 38f7 17bd
00000030: bbd7 053f 1313 0d3f f272 843d 8a76 6dbf
00000040: 8740 0dbd 3f66 46bd fa23 9b3f a0b8 673e
00000050: caf7 f1bc 06b7 ab3d 2be9 c33f e83e 37bf
00000060: 237f 7d3e f08a 143f 6d1a 753e 3928 ba3f
00000070: 755d d03c 4c7a 2a3f 50eb 22bf b4c0 5ebf
00000080: fce6 08bf 8505 43bf 39b7 e9be 41fa 8d3e
00000090: 8a99 81bd 8e91 f23e b0bf d4be 04fe eabe
000000a0: 69ef aabd 925b b9be f295 7dbd b40d cfbe
000000b0: e9bf 22bd 6393 a73d f3d2 983d 5c07 0b3f
000000c0: 030a 2fbe bb97 143e 938a 623f bc7e 9dbf
000000d0: f455 4a3f 2ea2 77c0 8b45 a1bd d3f9 403e
000000e0: 83db c1bf cb51 13bf e8ce a33e 195f 2b3e
000000f0: 4092 6c3f a8f1 de3b 1d00 09be f9b1 a7be
00000100: 1be1 fb3e a9a0 fa3e 06f7 5a3d 4897 39bf
00000110: 23f2 dcbd 4614 97be 372b ecbc 9726 10bf
00000120: 931d 49c0 2f1d fcbd af2b 8a3e 8321 17bf
00000130: 63c8 7dbf 580a a4bd 216f 073f 4eb3 a7be
00000140: 07c5 f7bd a6f5 123f 840d 963d bfd1 11bf
00000150: fb78 78be a3e9 763d ef1b e73e dbd0 163f
00000160: b709 63be 85a4 873e 427e ca3d 0a0d 23bf
00000170: 221b f33e 4ecb 363e 130d 903b 2de5 efbe
00000180: d682 1dbe 966c f0bd a369 b9be f677 08be
00000190: c4c0 6ebe a90f e2be 8b63 d13e cb92 15bf
000001a0: 5fe4 14bf b726 e53e 3bed 67be 4f6c 8c3e
000001b0: b0d0 923e abf7 c3bd d3c7 663e 88fd 94bc
000001c0: aab5 0b3f 5130 463e 813b e23c 1d03 56bf
000001d0: b5ab 2bbe 2370 013e 13cd 1cc0 3cba 793c
000001e0: eb7a 3d3d 97c6 0a3d 9aa0 613f 5557 e0bd
000001f0: 0f55 febe cf66 363e 240f 07bd f76a 06bf
00000200: 0450 cf3d 3261 4a3f 9901 233d 84dc 9ebe
00000210: 4e50 a33e 8b72 23be 8e36 92bd 3d73 95be
00000220: 39ee 373f 31c5 d13c bdeb 8e3e 6233 bdbd
00000230: 3531 0ebd 7a78 483f 099c bcbe 6fc5 8b3c
00000240: 4bfc 763c 2931 0c3e bf55 723e 865b 043d
00000250: dab4 c23e b476 dabd 7e66 27be 3890 51be
00000260: 6a4d 473e e097 353f 4f67 6b3e 6760 68bf
00000270: 5c59 ab3d fd11 5b3e a38a fabd d7cc 09be
00000280: 02ca 18bf 7e58 ca3c 603c a2be 2357 113e
00000290: d30c 263f c72d 42bf 34e4 893e 5806 61be
000002a0: a614 0abd 9bd6 773e 0664 efbc 2684 9ebe
000002b0: ced0 353e cfbe 1a3e a96b 06be 29b3 e53e
000002c0: 98e4 87be 1b48 ab3f d2eb 053e 52a8 a23e
000002d0: ae68 adbd c57d 9bbe f441 dabd 030e 393f
000002e0: 146a bc3c dceb 073e 46db 3e3d f93a 2b3e
000002f0: 0f7a 0ebe 923b 91be 575d a4bd b726 00bf
00000300: b078 9fbe ce35 50bc d1e3 1c3b 615f a1bd
00000310: 21c1 413f 8d78 123f 04c1 45bf b834 a43d
00000320: af29 bbbd 86db 883d 4e84 f3bd f248 d4bf
00000330: 1b9b 9e3d f0a0 fe3b 43f8 1c3e 1b74 6a3d
00000340: ae06 8ebe ce37 e13c ed0c 73bd c781 57bc
00000350: b79c e33d 010f e23d b1a2 9d3d 5c97 75bc
00000360: cbda 213e 4876 cd3c 740a 36bd 4b93 45bd
00000370: 79c4 ae3b da2b e43d c1a4 5f3e a81c 023f
00000380: 8584 fdbc b57e 8ebe 0f92 ab3c 17c7 acbe
00000390: 53ff d93d 8cde 273d 5fad 34bd 9cde 43bc
000003a0: bf1e 9bbd fc87 6b3d 47a8 bebd ab1a 1abe
000003b0: 5125 10be e93f 933d 0c0d b83d 9543 db3e
000003c0: 5303 0dbe b7ef 733e 6925 f9bd 66b1 fc3d
000003d0: c5e8 143d 17fb 723e a508 eabc bb2d 59bd
000003e0: 3b85 af3e 3d44 17bc a0a0 2d3f a98e 0bbf
000003f0: eac6 d43e cf33 1abf d08a 9fbe dcf6 f53e

MatMul_H3.bias f4 [50]
-0.07719344 -0.587428 0.52262306 -1.1049325 -0.111007385 -0.68103796 0.013855266 -0.32010373
-0.30694768 -0.13932323 1.0055438 -0.020730224 -1.037205 -0.1603798 1.1152117 -0.533844
1.6654646 -1.2399675 0.72720695 0.8105156 0.3418558 -0.022499694 -0.35728204 -0.17292666
0.0048578507 1.2980882 0.60005647 0.0009018664 1.7639874 0.07075944 -1.1367029 -0.86080366
-1.5194218 0.91987365 -0.00822532 -0.9447199 -0.23612773 -2.080042 0.5838595 0.16133893
-1.2163721 -0.19789533 -0.5286537 -1.4016787 -0.78981006 0.052424394 0.5103754 1.3242089
0.37591454 -0.0241743
00000000: 9817 9ebd ae61 16bf a0ca 053f 6e6e 8dbf
00000010: d757 e3bd 8158 2ebf 3301 633c a3e4 a3be
00000020: 3f28 9dbe c0aa 0ebe a9b5 803f 6ed2 a9bc
00000030: 22c3 84bf 9a3a 24be 42bf 8e3f 00aa 08bf
00000040: f22d d53f 41b7 9ebf 3c2a 3a3f f37d 4f3f
00000050: b907 af3e 4751 b8bc aced b6be b013 31be
00000060: 9b2e 9f3b c127 a63f 4d9d 193f 3b6b 6c3a
00000070: 57ca e13f 53ea 903d 7b7f 91bf a15d 5cbf
00000080: 6a7c c2bf d77c 6b3f 7ec3 06bc 2ad9 71bf
00000090: 78cb 71be 681f 05c0 d177 153f 0836 253e
000000a0: 15b2 9bbf 13a5 4abe d955 07bf 356a b3bf
000000b0: fe30 4abf f6ba 563d f6a7 023f ad7f a93f
000000c0: df77 c03e 2e09 c6bc

MatMul_H4.weight f4 [50, 50]
0.055996504 0.09062983 0.05253027 0.3492631 0.6334739 -0.14505547 -1.35406 -0.016062517
-0.11414414 -0.082886994 -0.05865837 0.2272768 0.394464 0.3650946 0.18617249 -0.36468676
-0.07456407 0.05643134 0.26493028 -0.26359034 0.265401 0.15044291 -0.062333547 -0.011836253
-0.16108076 -0.14967468 0.034274954 -0.025435632 -0.1408952 0.0969551 0.15361029 0.10802264
0.10041629 -0.0890116 -0.0390946 0.18307686 0.25511417 -0.14867622 0.11250869 -0.060747836
0.0645107 -0.0147577 0.03823249 -0.06542547 0.28397924 0.006241353 0.09653571 -0.3481097
0.0886195 -0.0332123 0.011271584 -0.142918 0.15260331 -0.0990842 -0.739558 0.6832814
0.041752543 -0.24937257 0.07538019 -0.12096805 -1.2398223 -0.9530271 0.617091 -0.21683574
0.30107182 0.9529823 -0.63411397 -0.45936668 -0.33745357 0.37018427 0.61077243 0.27332997
0.10598096 0.139006 0.71310925 -0.61064607 0.048690807 -0.14530453 0.20325565 0.078230016
-0.27785364 -0.11168816 -0.06244751 -0.029178666 -0.00534803 -0.5131964 -0.6396067 -0.1858
-0.48580623 -0.08513434 1.1686869 -0.29244977 0.26894373 -0.16546959 -0.76151544 -0.06384599
0.11419327 -0.3224754 0.047996018 0.0358644 -0.18284516 -0.02339994 -0.21644263 -0.1801278
-0.51417965 -0.26138088 -0.610843 -1.0379864 0.681825 -0.68423235 -0.28345814 -0.51238996
0.0566166 0.25164294 0.13048966 0.07221702 -0.7187145 0.72684616 0.24965964 0.22604457
0.4577988 -0.70497334 0.31089404 -0.74445766 -1.1271752 -0.09784391 -1.3003961 0.010488354
-0.65379965 0.174613 0.14284565 0.22716412 0.4956785 0.1999745 0.00355872 -0.33384746
0.118854955 0.21888402 0.19308698 -0.3084448 -0.225028 -0.80542 0.75309604 0.01299442
0.8046528 0.05550696 -0.044509675 -0.12934303 -0.450568 -0.00745789 -0.013805212 -0.24338683
0.36053106 0.20839113 -0.27617928 -0.7475719 -0.695281 -0.26133585 0.13102126 -0.1781717
-0.951872 -0.05769177 -0.271621 0.44076884 0.46503696 -0.98374116 -0.37654114 0.3671657
1.2422826 0.3117687 0.5934274 -0.2116457 0.20832972 -0.33609325 -1.0778061 -0.35139284
-0.7895452 -0.069298506 -0.48894873 -0.317983 0.23071855 0.41545865 0.47225538 -0.36744985
0.0472936 0.046477903 0.39142275 -0.045713376 0.43249127 -0.52566034 -0.550254 -0.863075
0.13689508 0.04018288 -0.2521948 0.019442275 0.015791878 -0.1343645 -7.03905 0.0356864
-0.05651505 0.14398897 -0.06462808 0.22580425 0.887608 -0.021086443 0.150925 -0.09828206
-0.099506244 0.06527763 -0.015099144 0.037622187 0.0378712 0.13188589 0.12154659 0.013987911
-0.05830306 0.04297086 -0.31182468 -0.089615986 0.15843986 0.16858162 -0.01696306 0.0023339533
-0.18120207 -0.123946995 -0.13187699 -0.054859363 -0.06986447 -0.12515388 0.04995137 0.028050203
0.10981032 -0.047096435 -0.0271937 -0.08193381 -0.022856932 0.04777029 0.02404592 -0.030827355
0.0118123 -0.0333232 0.24341922 -0.026864152 -0.059476856 0.02657039 0.2797787 0.027096346
-0.2573768 0.020582 -0.030333066 -0.13934018 0.012343492 0.0384668 -0.59925437 -0.1969934
00000000: 975c 653d 229c b93d fb29 573d 9dd2 b23e
00000010: 582b 223f 6c89 14be d751 adbf 8a95 83bc
00000020: 67c4 e9bd a8c0 a9bd c243 70bd 40bb 683e
00000030: 2ff7 c93e aeed ba3e 00a4 3e3e 39b8 babe
00000040: 0cb5 98bd 8c24 673d f1a4 873e 50f5 86be
00000050: a4e2 873e b50d 1a3e 7651 7fbd d8ec 41bc
00000060: 5bf2 24be 5244 19be e563 0c3d 635e d0bc
00000070: d546 10be 6590 c63d 044c 1d3e f93a dd3d
00000080: 0ea7 cd3d b74b b6bd a921 20bd 8078 3b3e
00000090: 539e 823e 943e 18be f56a e63d b9d2 78bd
000000a0: 301e 843d 48ca 71bc ac99 1c3d cafd 85bd
000000b0: ba65 913e 4484 cc3b 84b4 c53d 6f3b b2be
000000c0: 247e b53d 9f09 08bd 73ac 383c 1959 12be
000000d0: 0b44 1c3e a8ec cabd ac53 3dbf 88eb 2e3f
000000e0: b704 2b3d 865b 7fbe ee60 9a3d 19be f7bd
000000f0: 7fb2 9ebf 96f9 73bf adf9 1d3f 300a 5ebe
00000100: 1626 9a3e a6f6 733f 4b55 22bf 1c32 ebbe
00000110: b7c6 acbe cb88 bd3e 955b 1c3f e8f1 8b3e
00000120: 8c0c d93d 9757 0e3e 548e 363f 4d53 1cbf
00000130: 0370 473d b6ca 14be 4022 503e 0f37 a03d
00000140: d542 8ebe c3bc e4bd f6c8 7fbd 1908 efbc
00000150: 873e afbb d760 03bf 44bd 23bf 5b42 3ebe
00000160: 98bb f8be ea5a aebd 8897 953f fabb 95be
00000170: feb2 893e dc70 29be adf2 42bf b0c1 82bd
00000180: 29de e93d 7f1b a5be 7997 443d 8de6 123d
00000190: c33b 3bbe 3bb1 bfbc 23a3 5dbe 6c73 38be
000001a0: 47a1 03bf b7d3 85be 3560 1cbf bddc 84bf
000001b0: 158c 2e3f da29 2fbf 6d21 91be fd2b 03bf
000001c0: cfe6 673d 58d7 803e 159f 053e 84e6 933d
000001d0: acfd 37bf 9712 3a3f c7a6 7f3e 3a78 673e
000001e0: 9b64 ea3e 2279 34bf 812d 9f3e c794 3ebf
000001f0: 4747 90bf 6362 c8bd 6173 a6bf 58d7 2b3c
00000200: 6a5f 27bf c0cd 323e 2146 123e b69d 683e
00000210: 93c9 fd3e 1ec6 4c3e 6a39 693b 0eee aabe
00000220: 3a6a f33d 2223 603e 98b8 453e 7aec 9dbe
00000230: bd6d 66be 0130 4ebf e7ca 403f 8ce6 543c
00000240: bafd 4d3f 445b 633d c74f 36bd 8072 04be
00000250: d9b0 e6be 5161 f4bb 422f 62bc 663a 79be
00000260: 8797 b83e 7c64 553e 5f67 8dbe df60 3fbf
00000270: f0fd 31bf d0cd 85be 702a 063e a472 36be
00000280: e2ad 73bf 354e 6cbd e811 8bbe 74ac e13e
00000290: 5319 ee3e 76d6 7bbf 00ca c0be 25fd bb3e
000002a0: 1e03 9f3f 26a0 9f3e dcea 173f a6b9 58be
000002b0: 6354 553e 6a14 acbe 8df5 89bf c3e9 b3be
000002c0: a21f 4abf 60ec 8dbd 7d57 fabe abce a2be
000002d0: 7c41 6c3e ffb6 d43e 75cb f13e 6322 bcbe
000002e0: efb6 413d 9d5f 3e3d 9068 c83e f33d 3bbd
000002f0: 7f6f dd3e ad91 06bf 72dd 0cbf 7cf2 5cbf
00000300: 392e 0c3e ce96 243d ad1f 81be 6845 9f3c
00000310: f85d 813c d996 09be e63f e1c0 e72b 123d
00000320: 537c 67bd d871 133e ba5b 84bd 3b39 673e
00000330: 473a 633f 7abd acbc 158c 1a3e 1b48 c9bd
00000340: eec9 cbbd 47b0 853d 6662 77bc b919 1a3d
00000350: d51e 1b3d 180d 073e 6bed f83d 8d2d 653c
00000360: 30cf 6ebd 3602 303d 7ca7 9fbe 9688 b7bd
00000370: 0f3e 223e a9a0 2c3e 1df6 8abc 3df5 183b
00000380: 098d 39be ecd7 fdbd c30a 07be 36b4 60bd
00000390: 1a15 8fbd 5728 00be cf99 4c3d 8ac9 e53c
000003a0: 3ce4 e03d 31e8 40bd 53c5 debc eacc a7bd
000003b0: 763e bbbc c8aa 433d f3fb c43c a689 fcbc
000003c0: 6188 413c e87d 08bd e342 793e 3612 dcbc
000003d0: 019e 73bd 26aa d93c 273f 8f3e 28f9 dd3c
000003e0: e4c6 83be 959b a83c 0d7d f8bc 31af 0ebe
000003f0: 5c3c 4a3c 5d8f 1d3d bc68 19bf a3b8 49be

MatMul_H4.bias f4 [50]
-0.8886923 0.08790636 1.1722915 -0.30159688 -0.10699091 0.3682635 0.00435281 0.8716031
0.21743412 0.5361822 -0.3069962 0.90909183 1.5209142 0.37369117 -1.7078613 0.43661726
-0.20833912 0.26348677 -0.18595952 0.18139438 2.1188529 -0.09086452 0.64057356 -0.40618595
0.0226632 -0.0385719 -0.18172306 0.3394146 -0.4843826 0.568539 -2.8875806 0.53767526
0.80543923 -0.8650262 0.86636883 -1.1718642 -0.5150831 0.71349466 -0.56391394 0.23507108
-0.3679014 -0.05727809 0.46592778 0.09051673 -1.9222957 -1.2943659 0.20308842 -0.247351
0.29966396 0.10905377
00000000: 5781 63bf 4008 b43d a60d 963f e86a 9abe
00000010: 0d1e dbbd 098d bc3e 04a2 8e3b 6121 5f3f
00000020: 0da7 5e3e 3d43 093f 9b2e 9dbe 3eba 683f
00000030: 51ad c23f 7354 bf3e 339b dabf 4c8c df3e
00000040: da56 55be bde7 863e 2c6c 3ebe 73bf 393e
00000050: 499b 0740 2d17 babd a1fc 233f 9bf7 cfbe
00000060: 2da8 b93c 92fd 1dbd 9c15 3abe c0c7 ad3e
00000070: ff00 f8be c68b 113f 1fce 38c0 16a5 093f
00000080: 4431 4e3f 5b72 5dbf 59ca 5d3f a5ff 95bf
00000090: 7cdc 03bf 96a7 363f aa5c 10bf 79b6 703e
000000a0: 935d bcbe 6e9c 6abd 168e ee3e d660 b93d
000000b0: c90d f6bf c8ad a5bf 69f6 4f3e 9549 7dbe
000000c0: 8e6d 993e 9557 df3d

MatMul_H5.weight f4 [50, 50]
0.49674872 0.0520479 -0.548218 -1.781 -0.024049418 0.686999 -0.13540116 -0.11394114
-1.85554 -0.0926141 0.6866398 1.23211 0.0351377 0.13452184 -0.156691 -1.05217
-0.5568482 -0.689499 0.133229 0.337572 -0.162315 0.13541685 0.6780898 -0.55433923
0.361087 -0.0101149 0.022986315 -0.284657 -0.32055 -0.0124456 0.143183 0.146706
0.0802861 -0.02277759 -0.560735 0.105432875 -0.3032643 0.097282276 -0.0733986 -0.396427
-1.46465 0.090276435 0.333534 0.185071 -0.061163105 -1.17772 -0.405747 -1.65032
0.5825 0.0011789475 0.23968987 -1.53542 -0.7457517 -0.16377454 -0.1464882 -3.1873863
0.264373 -1.87975 0.7224423 -0.35080615 0.345489 0.6635703 -0.126046 -0.699597
-0.15008286 -0.007872521 1.054059 1.88116 -1.1271799 -0.42035854 -1.13205 -0.63233364
0.938582 -0.2073556 -0.3564 -0.0129941 -0.79612875 0.25695717 1.7230524 -0.0339072
-0.186343 -1.4989 0.10877488 -0.7540167 -0.658879 -0.8485702 0.5301362 0.21957739
-2.68077 2.31651 -1.77856 -0.6655928 1.92761 -0.273729 -11.1272 0.656477
-2.40475 -0.208327 0.707947 -0.4226951 -0.420342 -0.103415 -0.0460684 -0.0497218
0.153333 -0.0401715 0.030308 -0.107428 -1.72966 -0.847552 0.173435 -0.791939
-0.0231507 0.0056142 -2.35617 -2.28242 0.358505 -0.754427 -0.267451 -0.0715542
-0.208176 0.111489 -0.943402 -0.0610941 0.149098 0.00609477 0.106207 -0.714923
-0.84083 0.0195305 0.0371174 -0.0178604 -3.19251 0.0481696 -0.474612 -0.220424
-5.43156 -1.62751 -0.0157008 -0.0436999 -0.106493 -0.184195 -0.0152059 -0.0554533
-0.0826846 -1.52567 0.021087 0.0289427 -0.289129 -0.478908 0.19743629 -8.08492
0.2334615 0.18032093 0.54278314 0.23728488 0.18121997 -2.107937 0.034288794 0.06450052
-0.30124182 0.49237645 -0.421872 -0.44398767 -0.15067612 0.02451215 -0.12526385 -0.317064
-0.06626454 -0.20173137 -4.25535 0.079672754 -0.055986136 0.11483068 -0.313538 -0.018691
-0.47301704 0.14457002 -1.8229442 -0.0153958 -0.37601754 -0.0678823 0.31269696 -0.15118301
-0.27944088 -0.123435505 0.025359724 -0.3431896 -0.20361696 -0.3997419 0.477491 0.42075783
-0.25019863 -0.5932698 -2.9144542 -0.0450407 0.15597123 -0.0245132 -0.405272 0.15850452
0.44002292 -0.034780458 0.062830366 -0.24622433 -0.5013812 0.65496033 -0.01802556 0.03308894
0.008881182 0.0217994 -0.11058848 0.061007243 -0.014564924 0.06208692 0.0019425475 0.028481575
-0.039567403 -0.08028209 0.08470026 -0.020086715 -0.050237726 0.033241816 -0.02001217 0.6852438
-0.00375395 0.025183 -0.024298264 0.11258511 0.0863799 0.140416 0.037835475 0.014866416
0.0070729754 0.04869685 0.061580278 0.117394224 -0.3204786 0.036413662 0.014247931 0.47355458
-0.035724286 -0.0030603213 -0.026268937 0.13900027 -0.5704544 -0.057561465 0.08750676 -0.0100873
0.049821746 0.025189301 0.08709687 -0.21699584 -0.15402028 -0.41292372 0.80790854 2.0055306
00000000: d955 fe3e 2e30 553d 0458 0cbf cff7 e3bf
00000010: 4903 c5bc 2bdf 2f3f 9aa6 0abe f959 e9bd
00000020: 5682 edbf 76ac bdbd a0c7 2f3f c8b5 9d3f
00000030: 8dec 0f3d 18c0 093e 9b73 20be 82ad 86bf
00000040: 9b8d 0ebf 0283 30bf 2f6d 083e 3dd6 ac3e
00000050: e735 26be b7aa 0a3e 4b97 2d3f 2de9 0dbf
00000060: 65e0 b83e f7b8 25bc cc4d bc3c 90be 91be
00000070: 211f a4be a1e8 4bbc 909e 123e 193a 163e
00000080: 0a6d a43d 1298 babc 548c 0fbf 31ed d73d
00000090: 7545 9bbe ee3b c73d 0152 96bd 7bf8 cabe
000000a0: a779 bbbf dae2 b83d f8c4 aa3e 4183 3d3e
000000b0: 2a86 7abd 87bf 96bf 12be cfbe b03d d3bf
000000c0: b81e 153f ea86 9a3a 4371 753e a488 c4bf
000000d0: 95e9 3ebf 83b4 27be 0101 16be 23fe 4bc0
000000e0: e65b 873e a69b f0bf fbf1 383f dd9c b3be
000000f0: efe3 b03e bedf 293f 3412 01be ca18 33bf
00000100: 52af 19be bffb 00bc 68eb 863f dac9 f03f
00000110: 6e47 90bf 3c39 d7be 04e7 90bf 9ee0 21bf
00000120: e946 703f 0755 54be 107a b6be 35e5 54bc
00000130: 18cf 4bbf e48f 833e fb8c dc3f 47e2 0abd
00000140: b3d0 3ebe f5db bfbf 5dc5 de3d 3d07 41bf
00000150: 4bac 28bf e63b 59bf 02b7 073f e5d8 603e
00000160: bc91 2bc0 b341 1440 dba7 e3bf 4a64 2abf
00000170: edbb f63f 3526 8cbe 0309 32c1 e00e 283f
00000180: 6de7 19c0 ac53 55be 043c 353f 7e6b d8be
00000190: 1137 d7be 3ecb d3bd 38b2 3cbd 16a9 4bbd
000001a0: 5303 1d3e df8a 24bd 7c48 f83c 3603 dcbd
000001b0: 8065 ddbf 2bf9 58bf f298 313e 84bc 4abf
000001c0: 89a6 bdbc 53f7 b73b 7dcb 16c0 2b13 12c0
000001d0: f88d b73e 2122 41bf 56ef 88be 028b 92bd
000001e0: 172c 55be 5854 e43d cb82 71bf cf3d 7abd
000001f0: 25ad 183e a3b6 c73b 0e83 d93d 3205 37bf
00000200: a340 57bf 6dfe 9f3c 6a08 183d f94f 92bc
00000210: 1552 4cc0 7d4d 453d 5800 f3be d4b6 61be
00000220: 57cf adc0 3f52 d0bf f79e 80bc abfe 32bd
00000230: 0119 dabd 9d9d 3cbe 2b22 79bc 0023 63bd
00000240: 8b56 a9bd 2849 c3bf a5be ac3c 3e19 ed3c
00000250: b708 94be 6e33 f5be bd2c 4a3e d55b 01c1
00000260: 8810 6f3e 0da6 383e d6f3 0a3f cffa 723e
00000270: ba91 393e 71e8 06c0 6872 0c3d d918 843d
00000280: 5e3c 9abe c418 fc3e 9bff d7be 5a52 e3be
00000290: d74a 1abe b4cd c83c 2b45 00be 3656 a2be
000002a0: b4b5 87bd ab92 4ebe d42b 88c0 782b a33d
000002b0: b851 65bd 592c eb3d 0e88 a0be de1d 99bc
000002c0: 4a2f f2be 2a0a 143e 3c56 e9bf aa3e 7cbc
000002d0: 5f85 c0be e005 8bbd d119 a03e b8cf 1abe
000002e0: e012 8fbe c1cb fcbd 32bf cf3c 8cb6 afbe
000002f0: f780 50be f8aa ccbe b379 f43e 926d d73e
00000300: 091a 80be 88e0 17bf 6b86 3ac0 997c 38bd
00000310: ecb6 1f3e e8cf c8bc d07f cfbe 024f 223e
00000320: af4a e13e f475 0ebd 35ad 803d 3b22 7cbe
00000330: 855a 00bf 7bab 273f 57aa 93bc 4588 073d
00000340: 6182 113c a894 b23c 377c e2bd bbe2 793d
00000350: b8a1 6ebc db4e 7e3d 149d fe3a 3152 e93c
00000360: 6e11 22bd f06a a4bd 5477 ad3d e58c a4bc
00000370: 13c6 4dbd 9228 083d 90f0 a3bc 236c 2f3f
00000380: d404 76bb 944c ce3c 270d c7bc 0693 e63d
00000390: f2e7 b03d 36c9 0f3e 5ff9 1a3d 4592 733c
000003a0: 6bc4 e73b 5976 473d 9a3b 7c3d 626c f03d
000003b0: c515 a4be 7e26 153d 2770 693c bf75 f23e
000003c0: a153 12bd ac8f 48bb f431 d7bc 1656 0e3e
000003d0: 4d09 12bf 92c5 6bbd bf36 b33d 3445 25bc
000003e0: e311 4c3d cb59 ce3c d85f b23d 2834 5ebe
000003f0: 7eb7 1dbe bd6a d3be 18d3 4e3f 9d5a 0040

MatMul_H5.bias f4 [50]
-0.9012172 -0.59900016 0.00678128 -0.5498575 0.1132393 -0.69832003 -0.08042063 -3.26634
0.06068615 -0.7870047 0.32651943 -0.192081 -0.4045593 -0.50301594 -0.5471883 -0.22659154
-0.307923 0.095703274 0.21883766 0.31374213 0.2143102 0.2820875 0.000486853 -0.5254802
0.14546637 0.35881504 -0.0281562 0.2178336 0.5031497 -0.56666505 -1.6804184 -0.0408042
0.4291526 0.31929603 0.03543901 0.27481514 -0.34870493 0.21279049 0.27801508 0.34532458
0.161717 -0.21817012 -0.907449 -0.5534509 -1.5518254 0.39466554 0.23735757 0.15264526
0.5149026 0.45716232
00000000: 2cb6 66bf 1358 19bf 8035 de3b 76c3 0cbf
00000010: 02ea e73d 1ac5 32bf 92b3 a4bd b70b 51c0
00000020: 0a92 783d 2479 49bf 8e2d a73e e2b0 44be
00000030: 6622 cfbe a7c5 00bf 8814 0cbf 9d07 68be
00000040: 15a8 9dbe 1400 c43d fb16 603e cfa2 a03e
00000050: 2274 5b3e c66d 903e 4e40 ff39 df85 06bf
00000060: 23f5 143e 9bb6 b73e d5a7 e6bc c50f 5f3e
00000070: 6bce 003f f610 11bf f317 d7bf 4e22 27bd
00000080: e4b9 db3e c57a a33e 7f28 113d 92b4 8c3e
00000090: 7489 b2be c0e5 593e fe57 8e3e 62ce b03e
000000a0: 2499 253e fd67 5fbe 944e 68bf f5ae 0dbf
000000b0: 37a2 c6bf 9a11 ca3e dd0d 733e 0a4f 1c3e
000000c0: a8d0 033f 2e11 ea3e

MatMul_y_out.weight f4 [5, 50]
0.056913376 -0.01924332 0.0982843 0.026201054 0.052873176 0.06717059 0.023465494 0.0281937
-0.17881924 -0.014592521 0.008538296 0.0207218 0.055241972 0.07377198 0.066009805 0.015024047
0.031194983 0.021568311 0.018219624 0.11477145 0.0744634 0.042044528 0.176019 0.025719278
0.05619914 0.039127328 -0.0378493 0.060445268 0.045101766 0.00039832995 0.09454039 0.06946466
0.0028320344 0.03637726 0.050187055 0.06876563 0.055439543 0.12202697 0.011448806 0.040025257
0.009414674 0.028359944 -0.014168946 0.10541364 -0.017548505 0.05084407 0.09390543 -0.010829099
-0.010073089 -0.023758736 0.07269066 -0.013086537 0.191957 0.053688362 0.054519378 0.092620395
0.034912407 -0.000259193 0.023100376 0.003084644 -0.003003176 0.112695 0.052553356 0.094084814
0.061107457 0.012408407 0.02833757 0.01532755 0.047921143 0.031964432 0.06606683 0.030262377
0.227303 0.04396212 0.051287808 0.032585308 -0.0254271 0.047736965 0.053134102 -0.010105596
0.09249865 0.0731139 0.002098494 0.08174606 0.03501975 0.03153549 0.06592445 0.030949628
0.02895627 0.050760813 -0.0039331424 0.012263659 -0.014654816 0.0949322 -0.019246101 0.040251426
0.093346864 0.005019026 0.0024419152 -0.026243832 0.07500186 -0.025874173 0.161995 0.059425104
0.060766496 0.06983535 0.014832342 0.000698026 0.047415238 -0.017049015 -0.0019910773 0.156007
0.050476015 0.049397327 0.059426926 0.041232225 0.006577576 0.015386597 0.05011845 0.021634098
0.08017681 0.034904607 0.162178 0.049470548 0.06374015 0.04913939 0.0188662 0.040987622
0.037293654 -0.002470417 0.0968296 0.061496112 0.00981722 0.024482556 0.036186818 0.022142323
0.061177213 0.0299657 -0.0022434741 0.028924698 -0.01962416 0.07573935 -0.014161319 0.09575029
-0.025031364 0.04238229 0.096363045 0.009577445 -0.0050675776 -0.024283273 0.10095586 0.0124483835
0.158251 0.021229116 0.042022187 0.13473018 0.057621423 -0.00231943 0.04115394 0.006643924
-0.008140124 0.140408 0.050104644 0.095219076 0.039901957 0.004558558 0.049209785 0.010802594
0.045332767 0.017622376 0.04552825 0.033138715 0.155871 0.035639837 0.054742564 0.054468844
0.0547921 0.036500603 0.05824201 -0.032666933 0.09501388 0.066311024 0.016416196 0.0953395
0.026515547 0.051023968 0.06912466 0.015527214 0.0367706 0.067566216 0.007426772 0.008602773
-0.01233994 0.038576808 -0.0125360675 0.005972282 0.0874152 -0.0024575575 -0.0011563441 -0.027374586
0.004706772 -0.047837343 0.0917995 -0.03629002 -0.008904827 -0.0458443 -0.048064515 -0.000111176
-0.015076461 -0.043731112 -0.038642913 0.153764 -0.0048670154 -0.055771746 -0.006442056 0.024587816
-0.03867421 -0.044472355 0.02820718 -0.024598332 -0.009418406 -0.041043367 0.11592 -0.0034538049
-0.01588728 -0.01489408 0.0208381 -0.015800146 -0.044929538 0.022798035 0.043893203 0.02409478
-0.038605183 -0.0454087 -0.044596747 -0.036241233 0.001545716 -0.030896464 -0.05096593 -0.031248977
0.012877337 -0.021943616 -0.012158192 0.07539213 -0.028244723 0.02281444 0.060414296 0.0046155606
0.02174344 -0.027409114
00000000: 001e 693d 2ba4 9dbc 4749 c93d 98a3 d63c
00000010: 8b91 583d bc90 893d b53a c03c 79f6 e63c
00000020: 641c 37be 7815 6fbc 36e4 0b3c c4c0 a93c
00000030: 6845 623d c415 973d 2630 873d 6c27 763c
00000040: 9f8c ff3c 07b0 b03c 5241 953c 4b0d eb3d
00000050: 4480 983d e236 2c3d 533e 343e 3cb1 d23c
00000060: 1231 663d fa43 203d de07 1bbd 7595 773d
00000070: a1bc 383d f1d6 d039 649e c13d 7d43 8e3d
00000080: a799 393b 5200 153d f190 4d3d ffd4 8c3d
00000090: 9314 633d 47e9 f93d c693 3b3c 86f1 233d
000000a0: 0140 1a3c 1d53 e83c de24 68bc 1be3 d73d
000000b0: e2c1 8fbc df41 503d 7d51 c03d 896c 31bc
000000c0: 9909 25bc aea1 c2bc d7de 943d ea68 56bc
000000d0: 6090 443e 54e8 5b3d b64f 5f3d c3af bd3d
000000e0: 5000 0f3d 4ce4 87b9 003d bd3c bd27 4a3b
000000f0: efd0 44bb a3cc e63d 3042 573d 8aaf c03d
00000100: d04b 7a3d a24c 4b3c 3124 e83c 6720 7b3c
00000110: f648 443d 23ed 023d 0c4e 873d cee8 f73c
00000120: 1ec2 683e a011 343d 2a13 523d 2c78 053d
00000130: 7e4c d0bc d687 433d 25a3 593d f191 25bc
00000140: ef6f bd3d bebc 953d e386 093b 7a6a a73d
00000150: df70 0f3d 5c2b 013d 6603 873d 138a fd3c
00000160: b335 ed3c 92ea 4f3d 97e1 80bb 84ed 483c
00000170: c11a 70bc d06b c23d 00aa 9dbc aede 243d
00000180: a42c bf3d a476 a43b 8a08 203b 4efd d6bc
00000190: 939a 993d 13f6 d3bc 04e2 253e bd67 733d
000001a0: 4ae6 783d d605 8f3d 5a03 733c bbfb 363a
000001b0: 7b36 423d 60aa 8bbc bc7c 02bb 4dc0 1f3e
000001c0: f0bf 4e3d da54 4a3d a669 733d 1fe3 283d
000001d0: b588 d73b 1118 7c3c 0149 4d3d fe39 b13c
000001e0: bd33 a43d 22f8 0e3d fd11 263e a1a1 4a3d
000001f0: 328a 823d 6346 493d 4a8d 9a3c a3e2 273d
00000200: 3bc1 183d b8e6 21bb 994e c63d 59e3 7b3d
00000210: 68d8 203c a48f c83c a138 143d d163 b53c
00000220: f594 7a3d a17a f53c 4007 13bb 7df3 ec3c
00000230: d9c2 a0bc 3b1d 9b3d e004 68bc ba18 c43d
00000240: 930e cdbc 0d99 2d3d fd59 c53d b7ea 1c3c
00000250: ec0d a6bb b7ed c6bc f2c1 ce3d 4ef4 4b3c
00000260: 8d0c 223e afe8 ad3c 751f 2c3d b5f6 093e
00000270: 7104 6c3d 9401 18bb 0991 283d 46b5 d93b
00000280: 285e 05bc 1dc7 0f3e 873a 4d3d 3802 c33d
00000290: 3c70 233d f55f 953b 3390 493d 5dfd 303c
000002a0: daae 393d cd5c 903c d57b 3a3d 76bc 073d
000002b0: a69c 1f3e 14fb 113d bd39 603d b91a 5f3d
000002c0: ae6d 603d a881 153d 2d8f 6e3d c3cd 05bd
000002d0: a396 c23d 13ce 873d 427b 863c 5b41 c33d
000002e0: 2237 d93c 82fe 503d 3b91 8d3d db65 7e3c
000002f0: c59c 163d 2860 8a3d 475c f33b a5f2 0c3c
00000300: 762d 4abc b702 1e3d 1464 4dbc 22b3 c33b
00000310: be06 b33d f90e 21bb 7890 97ba ab40 e0bc
00000320: 443b 9a3b 17f1 43bd 6001 bc3d d8a4 14bd
00000330: 8de5 11bc 3cc7 3bbd 4cdf 44bd 2927 e9b8
00000340: 4303 77bc 651f 33bd 0848 1ebd 4f74 1d3e
00000350: 7c7b 9fbb ea70 64bd e217 d3bb 636c c93c
00000360: d968 1ebd a528 36bd be12 e73c 7182 c9bc
00000370: a84f 1abc 171d 28bd 7767 ed3d 3b59 62bb
00000380: 0b26 82bc 4d06 74bc aab4 aa3c 4f6f 81bc
00000390: 0908 38bd f2c2 ba3c 5cc9 333d 6b62 c53c
000003a0: 7820 1ebd 79fe 39bd 14ab 36bd b071 14bd
000003b0: 9f99 ca3a 951a fdbc a7c1 50bd dbfd ffbc
000003c0: 77fb 523c 19c3 b3bc 2733 47bc 3067 9a3d
000003d0: 7a61 e7bc 59e5 ba3c fb74 773d 213e 973b
000003e0: 4c1f b23c 1489 e0bc

MatMul_y_out.bias f4 [5]
-0.0006112927 0.043369193 0.0076735015 0.045811307 -0.027341995
00000000: 293f 20ba e5a3 313d ff71 fb3b a3a4 3b3d
00000010: 52fc dfbc
